LSTM/mlruns/0/models/m-b61dddf7988b4005bbdf5b7f063972c8/artifacts/data/model.pth (torch, 286885 bytes, 9 tensors)

weight f4 [128, 129]
0	0x3d508373	0.05090661
1	0x3dc876a2	0.097882524
2	0x3d19977d	0.037497986
3	0xbcf98c27	-0.030462338
4	0x3d7ff3b6	0.06248828
5	0xbd183c3f	-0.03716683
6	0xbd43e61d	-0.047826875
7	0x3c2b47b5	0.010454108
8	0xbd10d8f2	-0.035363145
9	0x3dbe9c4b	0.09307154
10	0xba616477	-0.0008598039
11	0xbd6b4004	-0.057434097
12	0xbcf4ccfa	-0.029882897
13	0x3b0743d0	0.0020639785
14	0xbcd14548	-0.025545731
15	0xbdd60e06	-0.104518935
16	0xbca7389d	-0.020412738
17	0x3d13f86d	0.03612559
18	0x3d2e25c1	0.042516474
19	0xbd28c495	-0.0412031
20	0x3c927c91	0.017881664
21	0x3cc19d6b	0.023634633
22	0xbd458621	-0.04822362
23	0xbac79ee0	-0.0015229844
24	0x3ca6943a	0.020334352
25	0xbd1629f0	-0.03666109
26	0xbc612229	-0.013741055
27	0x3dc414bb	0.095742665
28	0xbca7cef0	-0.020484418
29	0x3dcf587a	0.101242974
30	0x3c90647f	0.017626045
31	0x3ca4b52b	0.020105919
32	0x3d0baa0a	0.03409771
33	0xbca90a68	-0.020634845
34	0xbce2b49e	-0.027674016
35	0xbd7aed3e	-0.061261408
36	0x3ca9f24d	0.02074542
37	0x3d90f19d	0.07077334
38	0x3b1070ff	0.0022040007
39	0xbd38e37e	-0.04513883
40	0x3bd5968c	0.0065181907
41	0x3cd6d121	0.026222767
42	0xbbd1869f	-0.006394222
43	0x3d853edd	0.06506131
44	0xbc0fe4e6	-0.008782601
45	0xbd1cdf74	-0.03829904
46	0x3dafb908	0.08580214
47	0xbcf8dae3	-0.03037781
48	0x3d96af98	0.073577106
49	0x3ca4f9b7	0.020138605
50	0xbcb222e3	-0.02174515
51	0x3d752b1a	0.059855558
52	0x3cbbbc53	0.022916948
53	0xbcc712d1	-0.024300965
54	0xbcf15a5c	-0.029462032
55	0xbd1ba654	-0.03800042
56	0x3d745e6b	0.059660356
57	0x3ccf9543	0.025339728
58	0xbb94aa3e	-0.004536896
59	0xbd13aa01	-0.0360508
60	0xbd369f6e	-0.044585638
61	0xbb71f367	-0.003691876
62	0x3d1b5398	0.037921518
63	0x3d9ead29	0.077478714
64	0xbdb6e5bb	-0.08930536
65	0x3c2a00de	0.010376183
66	0x3b841878	0.004031237
67	0xbd82b277	-0.06381696
68	0xbd2c0f8c	-0.042007014
69	0x3d2e95db	0.042623382
70	0xbc4b02c3	-0.012390795
71	0xbbfa299e	-0.0076343557
72	0xbdbdbc87	-0.09264474
73	0xbdbb91ab	-0.09158643
74	0x3d94b7fc	0.07261655
75	0x3ca35a00	0.019940376
76	0x3d97fa0b	0.07420739
77	0xbc6096a8	-0.013707794
78	0xbcc4c200	-0.024018288
79	0xbde234d2	-0.11045231
80	0xbdc5586d	-0.096360065
81	0x3c145936	0.009054473
82	0x3d9173ad	0.071021415
83	0x3d80930f	0.06278049
84	0x3c3955f1	0.011311994
85	0x3ba81966	0.005129981
86	0x3d7b33e9	0.061328802
87	0xbd9790d4	-0.07400671
88	0x3c8208bd	0.015873307
89	0xbd20cf3e	-0.03926014
90	0xbd578420	-0.05261624
91	0xbd7ab2c9	-0.06120566
92	0x3db636bf	0.08897161
93	0x3aa569d0	0.0012620036
94	0x3da1c19e	0.07898258
95	0xbdb914f2	-0.09037198
96	0xbbb51360	-0.0055259913
97	0x3d662a8b	0.056192916
98	0x3d04e43e	0.03244423
99	0xbd567eed	-0.05236714
100	0xbc6bb31e	-0.014385967
101	0x3d7e76b0	0.062124908
102	0xbd3bbb48	-0.045832902
103	0x3ca43bc6	0.020048033
104	0x3d7e3421	0.062061433
105	0xbd117ce9	-0.035519514
106	0x3c672860	0.014108747
107	0x3d0b4f67	0.03401127
108	0x3c99a8e6	0.018757295
109	0xbd58cec8	-0.052931577
110	0x3db9490d	0.090471365
111	0x3d94408e	0.07238875
112	0x3ccd8766	0.025088977
113	0xbd0089c1	-0.031381372
114	0x3bc52e2a	0.006017466
115	0x3d335a82	0.043787487
116	0x3c4f35cc	0.0126471035
117	0x3dd644f7	0.10462373
118	0x3d1b5d8d	0.037931014
119	0xbbee44d3	-0.007271388
120	0xbdb66726	-0.08906393
121	0x3d966c7f	0.07344913
122	0x3d887b39	0.06664128
123	0x3c863ac6	0.016385447
124	0xbd254d13	-0.040356707
125	0xbd893312	-0.06699194
126	0x3dba1496	0.09085958
127	0x3c692cec	0.014231902
128	0x3d58aebb	0.05290101
129	0xbd1840fd	-0.037171353
130	0x3db87d05	0.090082206
131	0xbd645291	-0.055742804
132	0xbcc4e14d	-0.024033213
133	0xbda317e4	-0.07963541
134	0xbd908058	-0.0705573
135	0xbd5556fd	-0.05208491
136	0x3d86a939	0.065752454
137	0x3c758ded	0.014987451
138	0x3d974524	0.073862344
139	0xbc83d5bf	-0.016093133
140	0x3d7a8bad	0.06116836
141	0x3b8588ae	0.0040751314
142	0xbc8a6b12	-0.016896758
143	0xbb6fa2af	-0.0036565473
144	0xbcc2347d	-0.023706669
145	0xbd10f9f9	-0.035394643
146	0xbd212b93	-0.039348196
147	0x3c30defc	0.010795351
148	0xbd815c0e	-0.06316386
149	0x3da1c21b	0.07898351
150	0xbc32db1d	-0.0109164985
151	0x3d1a7fb0	0.03771943
152	0x3d480ae2	0.048838504
153	0x3da02787	0.07820039
154	0x3d95d91a	0.073167995
155	0xbc48a1ee	-0.012245638
156	0xbc8dd463	-0.017313188
157	0xbd8adc2d	-0.067802764
158	0x3c62dd00	0.013846636
159	0x3d0ee94c	0.034890458
160	0xbd4c62ec	-0.049899027
161	0x3d8a8059	0.067627616
162	0x3daae32b	0.0834411
163	0xbd022341	-0.031771902
164	0xbd9298a1	-0.07158018
165	0xbda568a3	-0.080765985
166	0x3d751e3f	0.059843298
167	0xbda15f84	-0.07879546
168	0xbd57b5d1	-0.052663628
169	0xbcb2dfd7	-0.02183525
170	0x3d28eb12	0.041239806
171	0xbd915d2a	-0.07097848
172	0x3d221266	0.039568327
173	0xbd5e6d68	-0.054303557
174	0xbd53e5f8	-0.051732987
175	0x3c507c6c	0.012724977
176	0xbd88dfc8	-0.06683308
177	0x3d8d3cbb	0.06896349
178	0x3ceba6fb	0.028766146
179	0x3dac3665	0.084088124
180	0xbd696494	-0.056980684
181	0xbc1a890e	-0.00943209
182	0xbd82ec3a	-0.06392713
183	0x3d8f970a	0.0701123
184	0x3b8d9422	0.0043206373
185	0xbc26e18a	-0.010185609
186	0xbd747de0	-0.059690356
187	0x3d6c4090	0.05767876
188	0x3c7363e1	0.014855356
189	0xbd922cee	-0.07137476
190	0x3c799759	0.015233838
191	0x3cd752f6	0.026284676
192	0x3dad96d8	0.08476037
193	0xbd36c0d7	-0.0446175
194	0xbd6d3d24	-0.057919636
195	0x3d6e177a	0.058127858
196	0x3dac7f65	0.08422736
197	0xbb4ab53b	-0.0030930776
198	0xbda78f89	-0.08181674
199	0x3d623e0d	0.055234957
200	0xbc420e61	-0.0118442485
201	0xbd3bdd14	-0.045865133
202	0x3bee4416	0.0072713
203	0x3d22d31e	0.03975212
204	0x3cfc9f9f	0.030837832
205	0xbd6a5cc9	-0.057217393
206	0x3d06c807	0.032905605
207	0xbd1fadbd	-0.03898405
208	0xbbe876df	-0.0070942487
209	0xbc8263dd	-0.01591676
210	0xbd9571b5	-0.072970785
211	0xbbd16120	-0.006389752
212	0x3cb0cf8d	0.021583343
213	0x3d88ce08	0.06679922
214	0xbd7c2b0c	-0.06156449
215	0x3c9ed449	0.019388335
216	0xbd9f5b4f	-0.077810876
217	0x3d0c8992	0.034310885
218	0x3d33211a	0.04373274
219	0x3d8a5aeb	0.067556225
220	0x3da4992d	0.080370285
221	0xbd8451b8	-0.06460899
222	0xbc988a26	-0.018620562
223	0x3c51cb8b	0.012804876
224	0x3b38ce1c	0.0028199023
225	0x3d936e7a	0.07198806
226	0xbd446267	-0.047945406
227	0x3d80ddd5	0.06292311
228	0x3db6303b	0.08895918
229	0xbd971f49	-0.07379014
230	0x3d2e931a	0.042620756
231	0x3db82128	0.08990699
232	0x3d5aafbc	0.05339025
233	0xbd1b1485	-0.037861366
234	0x3c8afe39	0.016966926
235	0xbdb96d85	-0.09054092
236	0x3c495e52	0.012290554
237	0xbcc1f885	-0.023678074
238	0xbd2b6198	-0.04184112
239	0xbaa6d28d	-0.0012727544
240	0xbd8c1662	-0.06840207
241	0x3c0857b8	0.008321695
242	0xbd792cf7	-0.060833897
243	0xbd9ea6e1	-0.077466734
244	0x3cc55be0	0.024091661
245	0xbcaeb7ae	-0.02132782
246	0xba7cdbcd	-0.000964579
247	0xbdb2677b	-0.087111436
248	0xbd68c069	-0.05682412
249	0xbda0476b	-0.07826122
250	0xbd0857a6	-0.033286713
251	0x3d977bb2	0.0739664
252	0x3d0aceb6	0.03388854
253	0xbd7ce7d4	-0.061744526
254	0x3b139d2d	0.0022524104
255	0x3c12f8d2	0.008970456

bias f4 [128]
0	0xbd55fa59	-0.052240703
1	0xbd57fb37	-0.05272981
2	0x3da2fdb0	0.07958543
3	0x3cd1d055	0.025612036
4	0x3d3daa39	0.046304915
5	0x3d94372a	0.07237084
6	0x3dd26752	0.10273613
7	0x3caef79f	0.02135831
8	0xbd1db2cf	-0.038500603
9	0x3cdf3bbc	0.027250163
10	0x3b2db786	0.0026507094
11	0x3d89ee6c	0.067349285
12	0xbd0e52d2	-0.034746952
13	0x3da9e76c	0.08296093
14	0xbd2deab8	-0.042460173
15	0x3daeef9d	0.08541796
16	0x3d84e5ba	0.06489129
17	0x3dc63163	0.096773885
18	0xbce9890a	-0.028507728
19	0x3dc8005e	0.09765695
20	0x3d75dfb3	0.06002779
21	0x3d9a3aad	0.07530723
22	0xbd8014d0	-0.0625397
23	0xbcaf6673	-0.021411156
24	0xbd327833	-0.043571662
25	0x3c905295	0.017617503
26	0x3d8be9bc	0.06831691
27	0x3dce4d56	0.100733444
28	0xbd8bf7d6	-0.0683438
29	0x3dca9b21	0.0989287
30	0x3da3bb2e	0.07994686
31	0x3dd58896	0.10426442
32	0xbcd7ab45	-0.026326785
33	0x3d7fd018	0.062454313
34	0x3c98e441	0.018663527
35	0xbd683de1	-0.056699637
36	0x3dd5aecd	0.10433731
37	0xbd0e9412	-0.03480918
38	0x3def4e71	0.116848834
39	0xbcfedaa8	-0.031110123
40	0xbd794f4d	-0.060866643
41	0x3c3a6a5e	0.011377899
42	0x3c1ccf21	0.009570868
43	0x3dbf648b	0.09345349
44	0xbce57382	-0.02800918
45	0x3d6bd173	0.057572793
46	0x3ccf6267	0.025315477
47	0x3c799c2d	0.015234989
48	0xbc6434ee	-0.013928635
49	0x3db4e061	0.088318594
50	0x3d1cf63f	0.038320776
51	0x3cd36c39	0.02580844
52	0x3d821435	0.063515104
53	0x3d8988e6	0.067155644
54	0x3dbbb7ed	0.091659404
55	0xbd717987	-0.058953788
56	0xbd46c99a	-0.048532106
57	0x3dceadba	0.100917295
58	0x3d32077d	0.043464173
59	0x3cddac69	0.02705975
60	0xbd77a40c	-0.06045918
61	0xbd444a1b	-0.047922235
62	0x3d504f73	0.05085702
63	0xbd874c3f	-0.0660634
64	0xbd627470	-0.055286825
65	0x3cebe265	0.028794477
66	0x3c736dc9	0.014857718
67	0x3d29f490	0.041493
68	0x3ce9845b	0.028505495
69	0xbaa99667	-0.00129385
70	0x3e1b4bca	0.1516563
71	0xbb7ae459	-0.0038283078
72	0xbd3ee624	-0.046606198
73	0x3d8821c8	0.06647068
74	0xbd07832c	-0.03308408
75	0x3da4fccf	0.08056032
76	0xba344352	-0.00068764866
77	0xbc554451	-0.013016776
78	0xbc9d2996	-0.019184869
79	0xbd40b46e	-0.04704707
80	0x3dbb7265	0.091526784
81	0x3d2ed0af	0.042679485
82	0xbd510aea	-0.0510358
83	0xbc8073e8	-0.015680268
84	0x3d1905b9	0.037358973
85	0x3d7c6c4e	0.061626725
86	0xbc9f8156	-0.019470852
87	0x3d949a58	0.07256001
88	0x3dc509ba	0.09620996
89	0x3c80ac07	0.015707029
90	0xbd5fe979	-0.054666016
91	0xbc811e04	-0.015761383
92	0xbd41d284	-0.047319904
93	0xbd843722	-0.06455828
94	0x3dc4a820	0.0960238
95	0x3d4422c9	0.047884736
96	0x3ccb04e2	0.024782602
97	0x3d9be5f0	0.076122165
98	0xbc3cf5fe	-0.0115332585
99	0x3dc6bc69	0.09703905
100	0xbccb4bef	-0.024816481
101	0x3c6fda9c	0.014639523
102	0x3dbd54e7	0.092447095
103	0x3cb18d01	0.021673681
104	0xbd69bb96	-0.05706366
105	0x3c93f9fe	0.018063542
106	0x3da78dbe	0.08181332
107	0x3d346fb4	0.04405184
108	0x3b715f12	0.0036830348
109	0x3db87d05	0.090082206
110	0x3d5b204c	0.053497598
111	0xbd895760	-0.067061186
112	0xbc0a3763	-0.008436057
113	0xbc409c00	-0.011755943
114	0x3ab6f071	0.0013957155
115	0x3dc52168	0.09625512
116	0xbbab75b3	-0.0052325367
117	0xbc929cc1	-0.017897012
118	0xbd1c3bd9	-0.038143013
119	0x3de4b9bf	0.11168241
120	0xbd2e817b	-0.04260395
121	0xbd01e80b	-0.031715434
122	0x3d6ba355	0.057528812
123	0x3dd37bb5	0.103263296
124	0xbd3783bd	-0.04480337
125	0xbd883a5d	-0.06651757
126	0x3ca4b5a7	0.02010615
127	0x3c581111	0.013187663

weight f4 [128, 129]
0	0x3dd53d83	0.10412123
1	0x3d656eea	0.05601398
2	0xbaafe1ae	-0.0013418698
3	0x3d04e7da	0.032447673
4	0xbc8bfd7e	-0.017088648
5	0x3db3ee24	0.08785656
6	0xbd626f2d	-0.055281807
7	0xbdc23f95	-0.094847836
8	0x3d3bff44	0.045897737
9	0xbd39ef5e	-0.045394294
10	0x3b904bb5	0.004403556
11	0xbd95ab9d	-0.07308123
12	0x3befd2e1	0.00731884
13	0xbda2dc70	-0.07952201
14	0x3cbcde7b	0.023055306
15	0x3d1dfc78	0.03857085
16	0xbd5607f0	-0.052253664
17	0xbd8ac060	-0.06774974
18	0xbdd5843c	-0.10425612
19	0xbd0b4177	-0.03399798
20	0xbbef2a27	-0.007298726
21	0x3d3abf9c	0.04559289
22	0x3d0a2ee7	0.033736136
23	0x3c87d432	0.016580675
24	0x3da22407	0.07917028
25	0xbd7d973e	-0.061911814
26	0x3ccdcb78	0.025121436
27	0xbc96c573	-0.018404698
28	0x3ddcf42b	0.10788759
29	0xbbd001b6	-0.00634786
30	0xbd91ad4b	-0.07113131
31	0x3b957b26	0.0045617996
32	0xbb0a5e4b	-0.0021113332
33	0x3db0b61b	0.08628484
34	0x3d084083	0.03326465
35	0x3cfd2f08	0.030906215
36	0x3bdd0f5e	0.0067462167
37	0xbca913f5	-0.020639399
38	0xbd7419b6	-0.059594832
39	0x3d15c871	0.03656811
40	0xbd12abb9	-0.0358083
41	0xbc2d56ec	-0.010579806
42	0x39e0cbbe	0.0004287641
43	0x3d4ce0d3	0.050019097
44	0x3d6b34c3	0.057423364
45	0x3dadd895	0.08488575
46	0x3d477c1d	0.048702348
47	0x3d7fe807	0.062477138
48	0x3ce9f7ed	0.028560603
49	0x3da6e05e	0.081482634
50	0xbcfbaab2	-0.030721042
51	0xbc5f7f8e	-0.013641251
52	0xbbf84e26	-0.0075776754
53	0x3da85456	0.08219211
54	0xbdbd72a2	-0.0925038
55	0x3b6c9ee4	0.0036105448
56	0xbd6a7239	-0.057237837
57	0xbcb99122	-0.022652213
58	0x3dcf6c61	0.101280935
59	0x3cb75415	0.02237896
60	0xbd4bbf15	-0.049742777
61	0x3c8b41c5	0.016999135
62	0x3d40a626	0.04703345
63	0xbca0523e	-0.019570466
64	0x3d6569b3	0.056009006
65	0x3c7dc0e8	0.015487887
66	0xbdb423c3	-0.087958835
67	0xbd0fc993	-0.035104346
68	0xbdb2a6c2	-0.08723213
69	0x3d09f0de	0.033676974
70	0xbd1b97ba	-0.037986495
71	0x3dec10a4	0.115266114
72	0x3c29cb36	0.010363391
73	0x3d4b8e5d	0.049696315
74	0x3d6a604a	0.057220735
75	0xbd288f29	-0.041152153
76	0xbd9860bb	-0.07440325
77	0xbd13ce24	-0.036085263
78	0xbc8da09e	-0.017288502
79	0x3d02b066	0.031906508
80	0x3d7681d4	0.060182407
81	0xba31f937	-0.000678915
82	0x3d504051	0.050842587
83	0x3c2b16da	0.01044246
84	0x3d29ea58	0.041483253
85	0x3dd195a9	0.102336235
86	0x3ccfe83a	0.025379289
87	0x3c862c01	0.016378405
88	0x3cb325d0	0.021868616
89	0xbd505061	-0.050857905
90	0x3d1b14dd	0.037861694
91	0x3d467bbf	0.048457857
92	0x3c8f423b	0.017487636
93	0x3d838166	0.06421165
94	0x3dc79ec9	0.09747083
95	0xbc052986	-0.008127576
96	0x3d16ae62	0.0367874
97	0xbd97c98c	-0.07411489
98	0x3d8868b1	0.06660593
99	0x3b352ee8	0.0027646367
100	0x3daa3391	0.08310617
101	0x3cc6b6ac	0.024257027
102	0xbc7ae15e	-0.015312521
103	0xbd93b256	-0.07211749
104	0x3d15ec26	0.03660216
105	0x3aa7aa11	0.0012791773
106	0xbd2c3094	-0.042038515
107	0xbc7c3b74	-0.015395034
108	0xbd3de9ea	-0.046365656
109	0x3d5db727	0.054129746
110	0x3d2b37c9	0.041801248
111	0xbc895c2e	-0.016767588
112	0x3d8eec6c	0.06978688
113	0xbce28b9f	-0.027654467
114	0xbd7333a4	-0.05937542
115	0x3db97f0d	0.09057436
116	0x3cb42158	0.021988556
117	0xbcb3bc60	-0.02194041
118	0x3daa9ac0	0.083302975
119	0xbdbbf367	-0.09177285
120	0x3d8e432c	0.06946406
121	0xbcd51d5a	-0.026014972
122	0xbc951e1c	-0.018202834
123	0xbc7c0f18	-0.015384458
124	0xbd8689ff	-0.065692894
125	0xbbc3bcc1	-0.005973429
126	0x3b38fbba	0.0028226213
127	0x3cb824c2	0.022478465
128	0xbcd5dfb2	-0.026107643
129	0xbdb66ba8	-0.089072526
130	0x3d3afe96	0.04565295
131	0xbd00ca46	-0.031442903
132	0xbd4e5b5d	-0.0503801
133	0x3c7835b7	0.015149525
134	0x3d725660	0.059164405
135	0x3b213da0	0.0024603382
136	0x3d89737d	0.06711481
137	0xbcdbc384	-0.026826628
138	0x3d81971d	0.06327651
139	0xbd2f7cbe	-0.042843573
140	0x3cab349f	0.020899115
141	0xbd5b9852	-0.05361206
142	0xbce086d9	-0.02740805
143	0xbdbc5a2b	-0.09196886
144	0xbd873abc	-0.066029996
145	0xbd814c4b	-0.0631338
146	0xbd542d81	-0.05180121
147	0x3d905d16	0.07049005
148	0x3d786706	0.060645126
149	0x3d652aa5	0.055948872
150	0x3bcd726c	0.0062697437
151	0x3d0fbfae	0.03509491
152	0x3dac7802	0.08421327
153	0xbcc5f345	-0.024163852
154	0xbd5fa0bf	-0.05459666
155	0x3d366e31	0.04453868
156	0x3cf1a003	0.029495245
157	0x3cfc5664	0.030802913
158	0x3b7b90b8	0.003838582
159	0x3d0dab76	0.034587346
160	0x3cc804fe	0.024416443
161	0xbce9f31b	-0.028558305
162	0x3d0b3c09	0.0339928
163	0xbd7f08b8	-0.062264174
164	0x3d86f0be	0.06588887
165	0xbc3e648f	-0.011620655
166	0x3adad748	0.0016696239
167	0xbd302b9e	-0.043010347
168	0xbd952101	-0.072816856
169	0x3d615405	0.055011768
170	0x3ccf4e07	0.025305761
171	0xbd827323	-0.06369617
172	0xbd00a14f	-0.031403836
173	0x3db08339	0.08618779
174	0xbd5044e0	-0.050846934
175	0x3d91f15d	0.071261145
176	0xbb3a6621	-0.0028442221
177	0x3d6affd3	0.05737288
178	0x3d606a5e	0.05478894
179	0xbc06fedd	-0.008239475
180	0xbd9ed6c9	-0.07755811
181	0x3d0c1251	0.034197155
182	0xbd754df9	-0.059888814
183	0xbd915815	-0.070968784
184	0xbc70ee9a	-0.014705325
185	0x3d868bfb	0.06569668
186	0xbd8cc11c	-0.0687277
187	0xbd8f28c4	-0.06990197
188	0x3c7fcef9	0.015613311
189	0x3dc7e504	0.09760478
190	0xbd145f0c	-0.036223456
191	0x3cc20e35	0.023688415
192	0xb854533d	-5.062226e-05
193	0x3d8e91f8	0.06961435
194	0xbd5194b6	-0.051167212
195	0xbd89deee	-0.067319736
196	0xbc895188	-0.01676251
197	0xbc6f253d	-0.014596281
198	0xbdabb3c5	-0.08383898
199	0xbd7ace09	-0.061231647
200	0x3c0f8c42	0.008761467
201	0x3d56127d	0.052263726
202	0x3db1b13b	0.08676382
203	0xbdb54927	-0.08851843
204	0x3d2cd2fa	0.04219339
205	0x3bf07514	0.0073381756
206	0x3d970d0b	0.073755346
207	0xbc6890b3	-0.014194655
208	0x3daac7d5	0.08338896
209	0x3c31c046	0.010849064
210	0xbdc80702	-0.09766962
211	0xbd312648	-0.0432494
212	0x3d03f93e	0.032220118
213	0xbd335e26	-0.04379096
214	0xbd80717b	-0.06271645
215	0x3da764fc	0.08173558
216	0xbbb20f6f	-0.0054339687
217	0x3d531b36	0.051539622
218	0x3d837200	0.06418228
219	0x3bd55663	0.0065105422
220	0xbd47d1b5	-0.048783977
221	0x3b8a1667	0.0042140963
222	0xbce967e5	-0.028491924
223	0x3c7607e7	0.0150165325
224	0x3d53fbd7	0.051753845
225	0xbd9290c1	-0.07156516
226	0x3c937a89	0.018002765
227	0xbc8b64db	-0.017015865
228	0x3d191f34	0.037383273
229	0x3bb5183c	0.0055265706
230	0x3ccd7870	0.025081843
231	0xbca74016	-0.0204163
232	0xbd87ba00	-0.066272736
233	0xbd47fd38	-0.048825473
234	0xbd76b330	-0.06022948
235	0xbcaa53c7	-0.020791901
236	0xbda5bf81	-0.08093167
237	0xbafbdade	-0.0019215008
238	0xbd2ea7ab	-0.04264037
239	0xbd4444bf	-0.047917124
240	0x3ca41286	0.020028364
241	0x3b9bc3a7	0.004753548
242	0x3c51dd74	0.012809146
243	0xbda74e2e	-0.081692085
244	0x3c7251c7	0.014790005
245	0x3db030a3	0.08603027
246	0xbb9911ae	-0.004671297
247	0x3d6fc6cb	0.058539193
248	0x3c13138a	0.008976826
249	0xbdba9d16	-0.09111993
250	0xbd450a62	-0.048105605
251	0x3d6bbc66	0.057552718
252	0x3d0d8a5c	0.034555778
253	0xbcdb4ab7	-0.026769025
254	0xbd13eaf0	-0.036112726
255	0xbcda58f8	-0.026653752

bias f4 [128]
0	0x3bfc7cfb	0.0077053285
1	0xbb1a8549	-0.002357798
2	0xbd9de1eb	-0.07709106
3	0x3d837cb2	0.06420268
4	0xbd0ad030	-0.03388995
5	0xbd80fc8b	-0.06298169
6	0xbc58dbbf	-0.013235985
7	0xbc53e147	-0.012932128
8	0x3c4b4e87	0.012408859
9	0xbd79fb80	-0.061030865
10	0xbd0617fd	-0.03273772
11	0xbd7a82bf	-0.061159845
12	0xbd67d7b9	-0.056602214
13	0xbd85ce99	-0.06533546
14	0xbd816afb	-0.06319233
15	0x3d97ca76	0.07411663
16	0xbd56968c	-0.052389666
17	0xbb3f2027	-0.0029163451
18	0x3c57de61	0.013175578
19	0xbbd67044	-0.006544145
20	0xbd46c25e	-0.048525207
21	0xbc504863	-0.012712571
22	0xbd4c8196	-0.04992827
23	0xbccd33be	-0.025049087
24	0xba1df75f	-0.0006025936
25	0x3d6d4743	0.05792929
26	0x3d86a17c	0.065737695
27	0xbc21fca7	-0.009886897
28	0x3c8f8d65	0.017523477
29	0xbc8d0cd7	-0.017218037
30	0x3beca0b1	0.0072213043
31	0xbd6886e9	-0.056769285
32	0xbd7f7952	-0.06237156
33	0xbc88978a	-0.016673822
34	0x3c5774f1	0.01315044
35	0x3cef6414	0.029222526
36	0x3cff1416	0.031137507
37	0xbcdda257	-0.027054949
38	0x3d90ea1f	0.07075905
39	0xbdb5e557	-0.08881634
40	0x3d1ea4db	0.038731437
41	0x3cc50226	0.024048876
42	0x3d2ae4e4	0.041722193
43	0xbd06f219	-0.032945726
44	0x3d8759d2	0.06608929
45	0x3c0b9545	0.008519475
46	0x3db68960	0.08912921
47	0x3ca2ced5	0.019874016
48	0x3d90dbea	0.07073195
49	0x3d85405b	0.065064155
50	0xbd98e14b	-0.07464846
51	0x3d020405	0.031742115
52	0x3bd0f485	0.0063768052
53	0xbbcc1e39	-0.0062291888
54	0xbd4cd2b6	-0.050005637
55	0xbd331f23	-0.043730866
56	0x3d30027c	0.04297112
57	0x3cc48487	0.023988975
58	0xbd837d22	-0.064203516
59	0x3d2fb44d	0.042896558
60	0x3d337bb9	0.043819163
61	0xbd57489e	-0.052559488
62	0xbd1906d5	-0.03736003
63	0xbd9b93d6	-0.07596557
64	0xbd10362e	-0.03520792
65	0x3c07d0b7	0.008289508
66	0x3c83b4ac	0.016077362
67	0xbd06b720	-0.032889485
68	0x3cb3a9b2	0.021931503
69	0x3bc6d24f	0.006067551
70	0x3ce77275	0.02825282
71	0xbd17ba44	-0.03704287
72	0xbbcce872	-0.0062532956
73	0x3d3de87a	0.046364285
74	0x3cc66353	0.024217283
75	0x3d6a352b	0.05717961
76	0xbd97c055	-0.07409731
77	0x3d0294ca	0.031880178
78	0xbda5f535	-0.0810341
79	0xbc26faf3	-0.010191667
80	0xbbc07679	-0.005873498
81	0x3c6b05c5	0.014344637
82	0x3d56aa39	0.05240843
83	0xbc0eb6dd	-0.00871059
84	0xbc95c2c8	-0.018281356
85	0x3d354e29	0.044263992
86	0xbc8599bc	-0.016308658
87	0x3a92f1a2	0.0011210928
88	0xbd8737f9	-0.06602473
89	0xbc41239f	-0.011788278
90	0xbc2b68ed	-0.010462028
91	0x3d419764	0.047263518
92	0x3cb27e0c	0.02178862
93	0x3bb0a560	0.005390808
94	0xbd96ab0f	-0.073568456
95	0xbccd6afc	-0.025075428
96	0x3cca412d	0.024689281
97	0xbd92c06f	-0.0716561
98	0x3d6a9df1	0.05727953
99	0xbd2cead8	-0.042216152
100	0x3cc44f01	0.023963453
101	0xbcb639d7	-0.022244377
102	0x3d95f4f6	0.07322113
103	0x3d6439f3	0.055719327
104	0x3c3efdc8	0.011657186
105	0xbc9b93a0	-0.018991292
106	0xbd6889c9	-0.056772027
107	0x3c4be010	0.012443557
108	0x3c272a93	0.010203022
109	0x3d4479c1	0.047967676
110	0x39ac1bc2	0.00032827078
111	0x3d8a6a5b	0.06758567
112	0xbc496909	-0.012293109
113	0x3cdfa782	0.027301554
114	0x3d8c1cd3	0.06841435
115	0x3d22b873	0.039726686
116	0x3db39197	0.087680034
117	0xbd5f12ec	-0.054461405
118	0xbd8f564d	-0.069988824
119	0xbd7731b8	-0.06035015
120	0x3db6b8a8	0.08921939
121	0xbd531bb3	-0.051540088
122	0xbbaa5640	-0.00519827
123	0x3d1ef028	0.03880325
124	0xbd4a0e08	-0.049329787
125	0x3d0013e3	0.031268965
126	0xbbd956c3	-0.0066326573
127	0x3d83078d	0.063979246

weight f4 [128, 129]
0	0x3d982f69	0.07430918
1	0x3d42e08a	0.04757742
2	0x3d7753e9	0.060382757
3	0x3d94c1e5	0.07263545
4	0xbd80d360	-0.062903166
5	0xbc921f3d	-0.017837161
6	0x3c428cbe	0.011874376
7	0xbced8b25	-0.028997013
8	0x3d3cba07	0.046075847
9	0x3dbe0a47	0.09279304
10	0xbda4c6e3	-0.08045747
11	0x3cc3a2c7	0.02388133
12	0xbd3bbf01	-0.045836452
13	0xbd515afe	-0.051112168
14	0xbda79ccb	-0.08184203
15	0xbbbc6abf	-0.00575003
16	0xbc100f58	-0.008792721
17	0x3d1f29f4	0.03885837
18	0x3c81875c	0.015811615
19	0xbc83ce76	-0.01608966
20	0xba592abd	-0.00082842616
21	0xbd7a5484	-0.061115757
22	0xbdbba595	-0.09162442
23	0xbdb2aa42	-0.0872388
24	0x3b295c57	0.0025842392
25	0xbca23c9c	-0.019804291
26	0xbd6bd2ef	-0.05757421
27	0x3c995f75	0.018722275
28	0xbb868930	-0.0041057095
29	0x3d937dcc	0.07201728
30	0xbdc36fd8	-0.09542817
31	0xbd21c903	-0.03949834
32	0x3d35ff36	0.04443284
33	0xbc9c8bac	-0.01910957
34	0x3c8378a9	0.016048746
35	0xbdbfeebe	-0.09371708
36	0xbbe4b4d1	-0.006979563
37	0x3d85ea1a	0.06538792
38	0x3b348d57	0.0027550065
39	0x3cac2fe2	0.021018926
40	0xbd0701e9	-0.032960806
41	0xbd29d68f	-0.041464385
42	0xbc348a18	-0.011019252
43	0x3cb072f5	0.02153919
44	0x3d57d9bc	0.052697882
45	0x3d2dc6ad	0.0424258
46	0xbb0ab93b	-0.0021167535
47	0x3d629d1d	0.055325616
48	0x3dc3d2c1	0.095616825
49	0x3dbfac10	0.0935899
50	0x3da5d179	0.08096594
51	0xbd6eee3d	-0.05833267
52	0xbcc3f744	-0.023921616
53	0x3d6bd53d	0.057576407
54	0x3c134432	0.008988427
55	0xbb982cb4	-0.004644001
56	0xbc754f1a	-0.014972473
57	0xbd118f67	-0.03553715
58	0x3c966230	0.018357366
59	0x3ca78482	0.020448927
60	0xbbe5b603	-0.007010223
61	0x3c302902	0.0107519645
62	0xbdbcd9dc	-0.09221241
63	0xbdacc997	-0.08436888
64	0x3b516cb6	0.0031955666
65	0xbce65feb	-0.02812191
66	0x3d5e1fdc	0.054229602
67	0xbd8cc4cb	-0.06873473
68	0x3d608c68	0.0548214
69	0x3dc27989	0.09495837
70	0xbb9e2619	-0.004826319
71	0xbd371299	-0.04469547
72	0x3d1da6c0	0.038489103
73	0xbd2ca24c	-0.042146966
74	0x3dcc6a01	0.09981156
75	0x3dd91c6c	0.10601124
76	0x3cbbecdb	0.02294009
77	0xbceef19f	-0.029167948
78	0x3d7638b7	0.06011268
79	0xbd86cdd1	-0.06582225
80	0xbda40a04	-0.08009723
81	0x3a8d01d2	0.0010757989
82	0x3aa3102c	0.0012440733
83	0xbd71a4b6	-0.05899497
84	0xbccbd10b	-0.024879953
85	0x3d0dd9a3	0.034631383
86	0x3d6f7a26	0.0584661
87	0xbc7d1063	-0.015445801
88	0x3d735bfc	0.059413895
89	0x3d92025c	0.07129356
90	0xbd35abab	-0.04435317
91	0xbc0e31c8	-0.008678861
92	0xbd73c3dd	-0.05951296
93	0x3d49e16f	0.049287256
94	0x3d1cbadf	0.03826415
95	0xbdab6b93	-0.083701275
96	0x3c1ac9fc	0.009447571
97	0x3c632414	0.013863582
98	0x3d3c2ea7	0.04594293
99	0x3d4abace	0.049494557
100	0x3c2f8b1e	0.0107143205
101	0x3d2d44ce	0.042301945
102	0x3d99b94b	0.07506045
103	0xbc93c970	-0.018040389
104	0x3d779fae	0.060455017
105	0x3ce5fab9	0.028073655
106	0xbd624d27	-0.05524936
107	0x3d9c69a8	0.0763734
108	0x3d9b16f3	0.075727366
109	0x3d881d01	0.06646157
110	0xbd402265	-0.0469078
111	0x3db6d322	0.08926989
112	0x3d9677a6	0.0734704
113	0x3d14a362	0.036288626
114	0x3dcbf7a4	0.09959343
115	0xbc0bfc67	-0.008544064
116	0x3d4426bf	0.047888514
117	0x3dac014b	0.08398684
118	0xbcfb4924	-0.030674525
119	0xbdc3bd84	-0.095576316
120	0x3d6b0654	0.05737908
121	0xbb9f0b89	-0.00485367
122	0xbb85a9b0	-0.004079066
123	0xbdb2e566	-0.087351605
124	0x3bf56d0d	0.0074898065
125	0xbd25524d	-0.04036169
126	0xba27f997	-0.0006407736
127	0x3c117f34	0.008880425
128	0x3d9429ce	0.07234536
129	0xbc87c893	-0.016575133
130	0xbd89d05e	-0.06729196
131	0x381575f2	3.5634213e-05
132	0xbc56f554	-0.013120014
133	0x3db3cc1d	0.08779166
134	0x3da4005b	0.0800788
135	0xbcf1f106	-0.029533874
136	0x3cc816dc	0.024424963
137	0x3cdd9e92	0.027053151
138	0xbd86e020	-0.06585717
139	0xbcd94c6a	-0.026525695
140	0xbd99e47f	-0.07514285
141	0xbc21f354	-0.009884674
142	0xbd951674	-0.07279673
143	0xbc5054be	-0.012715517
144	0xbdb096ed	-0.08622537
145	0x3db7803e	0.08960007
146	0xbd69cb18	-0.05707845
147	0xbc37828f	-0.011200561
148	0xbd994ec9	-0.0748573
149	0xbcc4c7f7	-0.024021132
150	0xbcb8bd9e	-0.022551354
151	0xbdbf3191	-0.09335626
152	0xbd3f2e5d	-0.046675075
153	0x3d80b666	0.0628479
154	0xbda60e74	-0.081082255
155	0xbd10e687	-0.035376098
156	0x3d8369cc	0.064166635
157	0x3d990425	0.07471494
158	0x3b48c9d4	0.0030637877
159	0xbbb96f31	-0.005659007
160	0x3d3cf732	0.04613418
161	0x3d896529	0.06708748
162	0x3d903bd8	0.07042664
163	0x3d895a79	0.067067094
164	0x3cb5dfcd	0.022201443
165	0x3d73fc66	0.059566878
166	0x3da2e751	0.07954276
167	0x3d9fb1c0	0.07797575
168	0x3d97c8ab	0.07411321
169	0xbc532a7b	-0.012888546
170	0xbcb56f96	-0.022147935
171	0xbd07f48f	-0.033192214
172	0x3d719518	0.058980078
173	0xbc82c059	-0.01596086
174	0xbd4b98eb	-0.04970638
175	0xbd91221a	-0.070865825
176	0x3da77cb2	0.081780806
177	0xbc4cc752	-0.012498694
178	0xbccbdfb4	-0.024886943
179	0x3db03fc8	0.08605915
180	0x3d3bda8c	0.04586272
181	0xbd33e9c5	-0.043924112
182	0xbbcdfc68	-0.0062861927
183	0xbcfb3466	-0.030664634
184	0x3d8350f2	0.064119235
185	0xbc13aa7a	-0.009012813
186	0x3d9fc8e3	0.07801988
187	0x3ce46d1e	0.027884062
188	0x3cc9874b	0.024600646
189	0x3b946b95	0.0045294263
190	0xbd86d255	-0.065830864
191	0xbd7b7319	-0.061389063
192	0x3b1fb6d1	0.0024370442
193	0xbce9f7dd	-0.028560573
194	0xbd66d9e1	-0.05636013
195	0xbd4ddc19	-0.05025873
196	0x3cbdb1a3	0.023155993
197	0x3cbe8f87	0.023261799
198	0xbd8b2bb7	-0.06795447
199	0xbd8ba4d2	-0.06818546
200	0x3d803577	0.062601976
201	0xbb6f5040	-0.0036516339
202	0x3d93ff7d	0.07226465
203	0x3d38bc2c	0.04510133
204	0x3d6b07f6	0.05738064
205	0x3cdfd4fa	0.027323235
206	0xbdb9d674	-0.09074107
207	0xbd8ab9f7	-0.06773751
208	0x3cb4838b	0.02203538
209	0x3d897bbb	0.06713053
210	0xbd3419d8	-0.04396996
211	0x3c4dcb09	0.012560614
212	0x3d65ac4f	0.05607253
213	0x3d93f0ea	0.07223685
214	0x3d80e406	0.06293492
215	0x3d7c9103	0.06166173
216	0x3c825d46	0.015913617
217	0xbd4f0ab3	-0.050547313
218	0x3ce7b0a3	0.02828247
219	0xbcde3d36	-0.027128797
220	0xbd70a19c	-0.058747873
221	0xbd760ce6	-0.060070895
222	0xbdb1e21e	-0.086857066
223	0xbd054539	-0.03253672
224	0xbd198bfa	-0.037487008
225	0xbd0f5350	-0.034991562
226	0x3d12e455	0.035862286
227	0x3ce84196	0.028351586
228	0x3d65dd60	0.056119323
229	0x3c6867d2	0.014184909
230	0x3db9699a	0.09053345
231	0x3d01cb86	0.031688236
232	0xbd17113c	-0.03688167
233	0xbc9d29d7	-0.01918499
234	0xbc40ab15	-0.011759539
235	0x3c9159a3	0.017742937
236	0xbcfba68a	-0.03071906
237	0xbc5e5d29	-0.013572016
238	0x3cf1e134	0.02952633
239	0xbcae2400	-0.0212574
240	0x3cbfcd90	0.02341345
241	0x3ccac38c	0.024751447
242	0xbbe6bf80	-0.0070418715
243	0xbd64d4d1	-0.05586702
244	0x3db18b90	0.086691976
245	0x3c335d94	0.010947604
246	0xbaf3dd42	-0.0018605369
247	0x3c11a3e4	0.008889172
248	0x3d656752	0.056006737
249	0xbd12fd91	-0.03588635
250	0xbad93241	-0.0016570763
251	0xbc91587c	-0.017742388
252	0xbd000996	-0.03125914
253	0xbd2182d9	-0.039431427
254	0xbd6b6f06	-0.057478927
255	0xbc03e94a	-0.008051226

bias f4 [128]
0	0xbd428d22	-0.047497876
1	0xbd907c49	-0.070549555
2	0x3d426f50	0.047469437
3	0x3cb55998	0.022137448
4	0xbb4bbf00	-0.0031089187
5	0xbce0b896	-0.027431767
6	0x3d8a4e6e	0.067532405
7	0xbc303b4a	-0.010756323
8	0x3d53467d	0.051580895
9	0x3d2242b5	0.039614398
10	0x3cfb46fa	0.030673493
11	0xbd3f9378	-0.046771497
12	0xbcf87478	-0.030328974
13	0x3ce52443	0.027971392
14	0xbd0e5fd1	-0.034759346
15	0x3d42e148	0.047578126
16	0xbd2338ff	-0.039849278
17	0xbb930e17	-0.0044877636
18	0xbd860232	-0.065433875
19	0xbd803a98	-0.06261176
20	0x3c368384	0.011139754
21	0x3d13f85c	0.036125526
22	0xbcedabeb	-0.029012641
23	0x3d9e501c	0.077301234
24	0xbbee59c9	-0.007273887
25	0x3cea5836	0.028606515
26	0xbcad4625	-0.021151612
27	0xbcccfb5f	-0.025022207
28	0xbd9aeb78	-0.07564443
29	0x3d971e44	0.073788196
30	0x3ce12e52	0.027487908
31	0x3c1dbdd4	0.009627778
32	0xbcf3b189	-0.029747741
33	0xbd609780	-0.05483198
34	0x3dc74411	0.097297795
35	0x3d50713c	0.05088924
36	0x3d521b45	0.051295538
37	0xbbaa099d	-0.0051891343
38	0x3dc177d4	0.094466835
39	0x39d469d4	0.0004051464
40	0x3dab1ac0	0.083547115
41	0xbbd928ce	-0.0066271788
42	0xbd224767	-0.039618876
43	0xbd51ce47	-0.051222112
44	0x3d2a5c67	0.041592028
45	0xbd138837	-0.036018576
46	0x3dc08ebb	0.09402224
47	0xbce04359	-0.027375864
48	0x3d7d4a79	0.0618386
49	0x3d53b108	0.051682502
50	0x3c5ffdd5	0.013671358
51	0xbd0a01da	-0.033693172
52	0xbd821a7f	-0.0635271
53	0xbd15857e	-0.03650426
54	0x3d40a6a4	0.04703392
55	0xbcaede82	-0.021346334
56	0x3db6b5ee	0.08921419
57	0xbd18b16e	-0.037278585
58	0xbcf4e355	-0.029893557
59	0x3d832d94	0.06405178
60	0x3dc817b8	0.09770149
61	0x3cdb1947	0.026745452
62	0x3d9e9e26	0.07745008
63	0xbd162d33	-0.0366642
64	0x3d2fcc67	0.042919543
65	0x3d2aaf02	0.041670807
66	0x3d51a048	0.051178247
67	0x3d30eb63	0.043193232
68	0x3d38f885	0.04515888
69	0x3db7efa1	0.089812525
70	0x3cfc97a7	0.030834032
71	0x3d8b5887	0.068039946
72	0x3dda0147	0.10644775
73	0x3ca4a6d7	0.020099087
74	0x3dd5eff3	0.10446157
75	0xbd88ea99	-0.06685371
76	0xbd1a1b3b	-0.037623625
77	0x3d6ec3ed	0.058292318
78	0x3ddabebf	0.10680913
79	0x3daae214	0.08343902
80	0x3ced15d3	0.02894107
81	0x3cb921bd	0.022599095
82	0x3d0c25e2	0.034215815
83	0xbc0a67fb	-0.008447642
84	0x3dce753b	0.10080954
85	0x3d8c4990	0.068499684
86	0x3dbf7d2a	0.09350045
87	0xbd270693	-0.040777754
88	0x3de406b9	0.11134095
89	0xbcb22141	-0.021744372
90	0x3d9f35d4	0.07773939
91	0x3daf1dea	0.085506275
92	0x3da83fe3	0.082153104
93	0x3d841ad2	0.06450428
94	0xbd244c57	-0.040111866
95	0x3addbfdd	0.0016918142
96	0x3dad24fd	0.084543206
97	0xbb753b2a	-0.0037419298
98	0x3d773059	0.060348842
99	0x3ddac5c6	0.106822535
100	0xbcaa2ead	-0.02077421
101	0x3d52787c	0.051384434
102	0x3d8287ee	0.06373583
103	0x3d490bf3	0.04908366
104	0x3b48d633	0.003064525
105	0xbcdd920a	-0.027047176
106	0xbd329a5c	-0.04360424
107	0x3b3a6120	0.0028439239
108	0x3da0842d	0.078377105
109	0x3b8cc0cc	0.004295444
110	0xbcdbf360	-0.026849449
111	0xbd835810	-0.06413281
112	0x3d35e724	0.044409886
113	0xbd6f3fdd	-0.058410514
114	0x3a47dce9	0.0007624166
115	0x3c9af494	0.018915452
116	0xbca29b53	-0.019849455
117	0x3d0d3352	0.03447277
118	0x3d1830f8	0.037156075
119	0x3d14a856	0.03629335
120	0x3d6a96a7	0.05727258
121	0x3cf6bd29	0.030119495
122	0x3d32fa89	0.04369596
123	0x3da058b7	0.07829421
124	0x3dcc0186	0.09961228
125	0x3cef6b03	0.029225832
126	0xbd1c31eb	-0.038133543
127	0xbcb66774	-0.022266127

weight f4 [128, 129]
0	0x3cf2b464	0.029627033
1	0x3d24c990	0.040231287
2	0xbbe9a2ec	-0.0071300175
3	0x3d7e4e75	0.06208654
4	0x3d0eced9	0.034865234
5	0xbd4693e0	-0.04848087
6	0xbdcc8d1c	-0.09987852
7	0x3d159f91	0.036529128
8	0x3d26fd90	0.04076916
9	0x3dc4d5e5	0.0961111
10	0x3c95451e	0.018221434
11	0x3c9da80c	0.01924517
12	0x3ccf09d2	0.025273237
13	0xbd815813	-0.06315627
14	0xbc9bcae6	-0.019017648
15	0x3cff1817	0.031139417
16	0xbd091c0f	-0.033474024
17	0x3d3b849e	0.04578077
18	0x3c6e59cc	0.014547776
19	0xbd5981e6	-0.053102396
20	0x3cc1a80e	0.023639705
21	0x3d67c701	0.05658627
22	0xbd98ab90	-0.07454598
23	0xbc1bc253	-0.00950678
24	0xbd0780d5	-0.03308185
25	0x3d89f0bf	0.06735372
26	0x3db7e870	0.08979881
27	0xbd1e8d1b	-0.038708787
28	0x3d415a1d	0.04720508
29	0xbd3822e2	-0.04495514
30	0x3d22fb2b	0.039790314
31	0xbd8645e7	-0.065563016
32	0xbd7db822	-0.06194318
33	0x3d76ae2e	0.060224704
34	0x3c073a24	0.008253608
35	0xbd22d711	-0.039755885
36	0x3dbaf357	0.09128445
37	0x3d071c12	0.032985754
38	0xbd5a7975	-0.053338487
39	0xbc293e85	-0.010329847
40	0xbd243ad4	-0.040095165
41	0x3dc7a3ba	0.09748025
42	0xbce31293	-0.027718818
43	0xbc39ef46	-0.011348551
44	0xbd194652	-0.03742058
45	0xbd67a3c3	-0.05655266
46	0x3d80d473	0.062905215
47	0x3d7c396e	0.061578207
48	0xbc799c14	-0.015234966
49	0x3c67b0d9	0.014141285
50	0xbd1f3714	-0.038870886
51	0x3d4747ea	0.048652567
52	0x3d756cfe	0.059918396
53	0x3d11f916	0.035637937
54	0xbd717a00	-0.05895424
55	0xbca20a19	-0.019780206
56	0xbd4bd53b	-0.0497639
57	0x3d94ea4a	0.072712496
58	0xbd3c4508	-0.04596427
59	0x3d29f15d	0.041489948
60	0xbd7fee23	-0.062482964
61	0x3cb7e2ae	0.022446956
62	0xbd2144b6	-0.03937217
63	0xbd25d545	-0.040486593
64	0xbc989b97	-0.018628879
65	0xbd54bfac	-0.051940605
66	0xbd9b98fb	-0.07597538
67	0x3db451cc	0.08804664
68	0x3d0af90c	0.033928916
69	0x3da34367	0.0797184
70	0xbd3da4cc	-0.04629974
71	0x3d16d7ea	0.036827005
72	0xbdc2ecc1	-0.095178135
73	0xbd5adc73	-0.053432893
74	0x3dd3e8ec	0.10347161
75	0x3dd4a97e	0.103838906
76	0xbcbbff5c	-0.022948913
77	0xbd9b88d1	-0.07594455
78	0x3da67308	0.08127409
79	0xbdae5618	-0.08512515
80	0xbd0e572d	-0.034751106
81	0x3db8f7f6	0.0903167
82	0xbc2b013b	-0.010437305
83	0xbd352b84	-0.044230953
84	0x3ca484ea	0.02008291
85	0x3d975db8	0.07390922
86	0x3ce410b0	0.027839988
87	0x3d277d28	0.040890843
88	0x3d819cc8	0.06328732
89	0xbbe9cbae	-0.007134876
90	0x3cefeccb	0.029287716
91	0xbd6b451b	-0.05743895
92	0xbd48c87d	-0.049019326
93	0x3d91bdda	0.071162894
94	0x3dbccfa5	0.092192926
95	0xb9ac3d72	-0.00032852177
96	0xbdabaa9d	-0.08382151
97	0x3bfe0207	0.0077517065
98	0xbcedd8c4	-0.029034026
99	0x3d354566	0.044255637
100	0x3d719c2b	0.058986824
101	0x3baabf81	0.0052108173
102	0x3d146bb7	0.036235537
103	0xbcdb697a	-0.026783694
104	0xbd7c1726	-0.061545514
105	0xbdc1cdb4	-0.09463063
106	0xbdb1a56f	-0.08674132
107	0xbd9475ed	-0.07249055
108	0xbd2e881f	-0.042610284
109	0x3cfb34a2	0.030664746
110	0x3db92675	0.09040538
111	0x36d42697	6.322585e-06
112	0x3d89e926	0.06733923
113	0x3d63e1fe	0.055635445
114	0xbd8df4ec	-0.06931481
115	0x3d96834c	0.07349262
116	0x3c138c49	0.009005615
117	0x3cd7c29b	0.026337912
118	0x3d2bf7f0	0.0419845
119	0xbde088ad	-0.10963569
120	0x3acbbff8	0.0015544882
121	0x3d9f4a2e	0.077778205
122	0x3ae53d99	0.0017489671
123	0xbdafffb1	-0.08593691
124	0xbc0d7b4d	-0.008635354
125	0xbd431f76	-0.047637425
126	0x3d789303	0.060687076
127	0x3ddcf428	0.107887566
128	0xbc9c643a	-0.01909076
129	0x3d6ffc15	0.058590014
130	0xbd30da8c	-0.043177173
131	0xbd61969e	-0.05507528
132	0xbc5cb206	-0.0134701785
133	0xbd4ada3a	-0.049524523
134	0x3ccd0238	0.025025472
135	0xbd9e6664	-0.07734373
136	0x3ce75e19	0.028243111
137	0xbd693f35	-0.056945045
138	0x3d155560	0.036458373
139	0xbaa81853	-0.0012824632
140	0xbd9537da	-0.072860435
141	0x3d01f547	0.031728055
142	0xbce02963	-0.027363485
143	0xbdc90b78	-0.098166406
144	0xbc28027b	-0.010254498
145	0x38d3d510	0.0001010095
146	0xbd4c5b28	-0.04989162
147	0x3d4e6bc5	0.050395746
148	0x3bb7ae33	0.005605483
149	0x3d465e51	0.04842979
150	0xbd6abf31	-0.05731124
151	0x3b3e4e9b	0.0029038552
152	0xbc457d34	-0.0120537765
153	0xbaac1a8d	-0.0013130471
154	0xbba7fd38	-0.0051266216
155	0xbcb7992b	-0.022411903
156	0x3c3c5207	0.011494166
157	0xbd26eac8	-0.04075125
158	0xbd99afbf	-0.07504224
159	0x3c9d6024	0.019210882
160	0xbda42326	-0.080145165
161	0x3d824dab	0.0636247
162	0xbceae7b2	-0.028674934
163	0xbd9117d0	-0.0708462
164	0x3c92e5f4	0.017931916
165	0xbc7f6bef	-0.015589698
166	0xbd8a93f0	-0.06766498
167	0x3d912560	0.07087207
168	0x3cf7c383	0.030244594
169	0xbafd2092	-0.0019312075
170	0x3d37b578	0.044850796
171	0xbd3beceb	-0.04588024
172	0x3bf6ad0c	0.007527953
173	0xbb1c1de1	-0.002382152
174	0x3ca8c615	0.020602265
175	0xbc341662	-0.010991665
176	0x3b96a807	0.004597667
177	0xbaf27543	-0.0018498081
178	0x3d92e84b	0.071732126
179	0x3cadf95d	0.02123707
180	0xbca57b59	-0.020200418
181	0x3d088b6e	0.033336096
182	0x3cb6df69	0.022323327
183	0x3d8fd425	0.07022885
184	0xbcf18c81	-0.029485943
185	0xbd7ece3a	-0.06220839
186	0xbd9b97a8	-0.075972855
187	0x3d48cf53	0.049025845
188	0x3cba2071	0.022720547
189	0x3da7cb20	0.0819304
190	0x3ce40962	0.027836505
191	0xbd14d423	-0.03633512
192	0xbd743235	-0.059618194
193	0xbc90e364	-0.017686553
194	0xbcfcda05	-0.030865679
195	0x3d9bf4e2	0.07615067
196	0x3d2b8230	0.041872203
197	0x3d4735dc	0.04863535
198	0x3d761836	0.060081683
199	0x3da91709	0.08256347
200	0xbc94dc49	-0.018171446
201	0xbbe12edc	-0.006872041
202	0xbda5d014	-0.080963284
203	0x3c1d0dd3	0.0095858155
204	0x3ce02a63	0.027363962
205	0x3db08dc3	0.08620789
206	0x3d8a2d7b	0.06746956
207	0xbc37d6e3	-0.011220667
208	0x3cc66835	0.024219612
209	0x3c912e83	0.017722374
210	0xbd12eb82	-0.03586913
211	0xbc4cc1f1	-0.012497411
212	0x39321680	0.00016983785
213	0x3c1dde6a	0.009635547
214	0x3d8a0eb6	0.06741087
215	0x3ca47465	0.020075032
216	0x3c8f321f	0.017479954
217	0x3d47dcfe	0.04879474
218	0xbda19ea4	-0.078915864
219	0x3da6826e	0.08130346
220	0x3d8e7f21	0.06957842
221	0x3d86f9e0	0.065906286
222	0x3d234b2e	0.03986662
223	0x3d186947	0.037209775
224	0xbd688a64	-0.056772605
225	0xbd9581c2	-0.0730014
226	0x3d7fefec	0.062484667
227	0xbcb1ffa8	-0.021728352
228	0xbd36ce18	-0.04463014
229	0xbd14df78	-0.03634593
230	0x3d296dbe	0.041364424
231	0x3d512b80	0.051066875
232	0xbae80a3c	-0.0017703245
233	0x3d1c2208	0.038118392
234	0x3c5376b3	0.012906718
235	0xbdb1e9c2	-0.08687164
236	0x3d10ea2d	0.035379577
237	0xbd9d6d2a	-0.07686837
238	0xbd3f0a96	-0.046640955
239	0xbd71557f	-0.058919426
240	0x3daa1ad9	0.08305902
241	0xbd04edbc	-0.032453284
242	0x3cd9b63f	0.02657616
243	0xbd9ac278	-0.07556623
244	0xbc6c8232	-0.014435338
245	0x3ca799b8	0.020459041
246	0xbce13c41	-0.027494552
247	0x3c2bb085	0.010479097
248	0xbdac8708	-0.08424193
249	0x3d0307c9	0.031989846
250	0x3c81fde6	0.015868139
251	0x3d9bcd6c	0.076075405
252	0xb9bcc03c	-0.0003600138
253	0x3db9f2b3	0.09079494
254	0xbcf94d40	-0.030432343
255	0x3da94d2d	0.08266673

bias f4 [128]
0	0x3db02247	0.08600288
1	0xbd54fdee	-0.05199998
2	0xbd2b44b8	-0.041813582
3	0xbd888610	-0.066661954
4	0x3d6c1c12	0.057643957
5	0x3bc2c7dd	0.0059442357
6	0x3d327ec5	0.043577928
7	0x3d35656d	0.04428618
8	0x3dcc1d8d	0.09966574
9	0x3d0224ac	0.031773254
10	0xbc2f65b5	-0.010705401
11	0x3dbe35b0	0.09287584
12	0x3d45d185	0.048295517
13	0x3a3643da	0.00069528597
14	0x3cfe80b2	0.031067226
15	0x3ca2d2d8	0.019875929
16	0xbc61e745	-0.013788049
17	0x3dbcff1b	0.09228345
18	0x3cee6f96	0.029105943
19	0x3d3467b2	0.044044204
20	0x3cf7ffcf	0.030273346
21	0x3d9077a7	0.07054072
22	0x3dcceff5	0.10006706
23	0xbd0cec1f	-0.03440487
24	0xbd66b700	-0.056326866
25	0x3d520897	0.051277723
26	0x3d8bd1a3	0.068270944
27	0x3ab3f2a0	0.0013728924
28	0x3d1f9b08	0.03896621
29	0x3da862be	0.082219586
30	0xbc7c40be	-0.015396295
31	0x3dc994e4	0.09842852
32	0x3cf3b765	0.029750535
33	0xbc35d0d9	-0.011097156
34	0x3a9fbc92	0.0012186936
35	0x3cf492f8	0.029855236
36	0x3def0540	0.11670923
37	0xbd2381ea	-0.039918818
38	0xbcbc0167	-0.022949887
39	0x3db12c6d	0.08651052
40	0x3d518fa8	0.051162392
41	0xbd546b3b	-0.051860075
42	0xbc598a35	-0.01327758
43	0x3dada1ea	0.08478148
44	0x3cee1c79	0.029066311
45	0x3d2f805c	0.042847022
46	0x3d537211	0.051622454
47	0x3d6f56be	0.058432333
48	0x3c9c4cf6	0.019079667
49	0x3cb721b1	0.022354933
50	0xbd49109b	-0.0490881
51	0x3cc4e812	0.024036441
52	0xbcc6b379	-0.024255501
53	0x3d61b3f4	0.055103257
54	0x3ca4a5e5	0.020098636
55	0x3cec6af2	0.02885959
56	0xbd2ffb69	-0.042964373
57	0x3d9ed3ec	0.07755265
58	0xbd2d60c9	-0.04232863
59	0x3d3f07f8	0.04663846
60	0x3c44ee2c	0.012019675
61	0xbbf68808	-0.0075235404
62	0xbd158846	-0.036506914
63	0xbcb3ec27	-0.021963192
64	0x3cee2134	0.029068567
65	0xbd8befd0	-0.0683285
66	0x3dc18b1c	0.09450361
67	0xbbb4f0f2	-0.005521887
68	0xbcc77f9f	-0.024352847
69	0x3de34f05	0.11099056
70	0x3e196e24	0.14983422
71	0x3de3cdfa	0.11123271
72	0x3d4ac3f6	0.04950329
73	0xbd95732d	-0.07297359
74	0x3d9f428d	0.077763654
75	0xbbeff5b7	-0.0073229927
76	0x3d3581d6	0.044313274
77	0x3b4435b7	0.0029939243
78	0x3bb4d72a	0.0055188136
79	0x3d37c298	0.044863313
80	0x3dd13ede	0.10217069
81	0x3dee0db6	0.11623709
82	0xbcae7f5f	-0.02130097
83	0xbd5e087a	-0.054207303
84	0x3d93d59f	0.07218479
85	0x3db16827	0.086624436
86	0x3d11ab62	0.035563834
87	0xbd5e2828	-0.054237515
88	0x3d4239ce	0.047418408
89	0xbc88e385	-0.016710052
90	0x3cb581e3	0.022156661
91	0xbd130c84	-0.035900608
92	0xba62fd19	-0.00086589303
93	0x3d0e7ce9	0.034787092
94	0x3c426e18	0.011867069
95	0x3bd5bbb3	0.0065226196
96	0xbc0cec46	-0.008601254
97	0xbd62e918	-0.055398077
98	0x3d3f2b9d	0.046672452
99	0x3bac3f41	0.005256564
100	0xbcc48a5d	-0.023991758
101	0xbcae5629	-0.021281319
102	0x3d2f1e47	0.042753484
103	0x3dae9e00	0.0852623
104	0xbca53c32	-0.020170305
105	0x3d812cbb	0.0630736
106	0x3ce0afee	0.02742764
107	0xbd81df7b	-0.06341454
108	0x3dced199	0.10098571
109	0xbd005e53	-0.031339955
110	0x3b5353d9	0.0032246022
111	0xbd9426a4	-0.072339326
112	0x3d2ccc11	0.0421868
113	0x3caf93e8	0.021432832
114	0x3d54ae85	0.051924247
115	0x3d4ba767	0.049720194
116	0xbc8a039c	-0.016847424
117	0x3d6a4b6d	0.057200838
118	0x3cb6399c	0.022244267
119	0xbd5e67a2	-0.05429805
120	0xba451357	-0.00075178355
121	0xbd22a3e1	-0.03970707
122	0x3d5faa18	0.054605573
123	0x3d78fc24	0.060787335
124	0x3db243b7	0.08704322
125	0xbd81456e	-0.06312071
126	0xbc1728d7	-0.009226046
127	0x3d9b7139	0.07589955

weight f4 [1, 128]
0	0x3d7d9a1d	0.061914552
1	0xbd5fe7d4	-0.054664448
2	0x3d865f4f	0.065611474
3	0x3d8a2449	0.06745202
4	0x3d2cedcf	0.04221898
5	0x3d8d02d6	0.068853065
6	0xbd39c344	-0.045352235
7	0x3d86390c	0.065538496
8	0x3d8ee8ee	0.069780216
9	0x3dc2edcc	0.095180124
10	0xbdbca6ee	-0.09211527
11	0x3d3f1185	0.046647567
12	0xbdac735d	-0.08420441
13	0x3d4fac5c	0.050701484
14	0x3d82e937	0.063921385
15	0xbd98d262	-0.07462002
16	0xbdc21796	-0.09477155
17	0xbd0e46d5	-0.03473552
18	0xbd72c7b3	-0.05927248
19	0xbd82768a	-0.06370266
20	0xbdb03b19	-0.08605022
21	0xbd85da07	-0.06535726
22	0x3d661cfc	0.056179985
23	0xbd8490f5	-0.06472961
24	0xbd8b6698	-0.068066776
25	0x3d603c5a	0.054745056
26	0xbd67a62d	-0.056554962
27	0x3dc652b3	0.096837424
28	0x3d81df4f	0.06341421
29	0xbd628e2a	-0.05531136
30	0xbda376c2	-0.07981636
31	0x3d6af906	0.057366394
32	0xbd4c70df	-0.04991233
33	0xbd43063b	-0.047613364
34	0xbdd8577c	-0.10563561
35	0x3d6078bc	0.05480264
36	0xbd53ae72	-0.051680036
37	0xbd80077a	-0.06251426
38	0x3d7934a2	0.06084121
39	0x3d3c377b	0.045951348
40	0x3dcefa7f	0.10106372
41	0x3d986072	0.074402705
42	0x3d5ea096	0.054352365
43	0xbda3db90	-0.080008626
44	0x3d974c0f	0.07387554
45	0x3dc1f2f1	0.094701655
46	0xbd25e72c	-0.040503666
47	0x3d98afcd	0.07455406
48	0x3d850d04	0.06496623
49	0x3d09b683	0.033621322
50	0x3d15a45f	0.03653371
51	0x3dcd826a	0.1003464
52	0x3dba68c1	0.091020115
53	0xbd8a6f0e	-0.06759463
54	0x3d9ce241	0.07660342
55	0xbdb00cc4	-0.08596185
56	0xbda8a7a2	-0.082350984
57	0xbd8fec7f	-0.0702753
58	0xbd558b77	-0.052134957
59	0xbdd1ed5b	-0.1025035
60	0x3da6d0cd	0.08145294
61	0xbde0b9e1	-0.109729536
62	0x3d5a61e0	0.053315997
63	0x3d862b13	0.065511845
64	0x3de855ed	0.11344514
65	0x3daa406f	0.08313071
66	0x3da347be	0.07972668
67	0xbd8047d5	-0.06263701
68	0xbd4e6a99	-0.05039463
69	0xbe07c423	-0.13258414
70	0x3db0f51e	0.086405024
71	0xbd4a1e05	-0.049345035
72	0xbd885d2b	-0.066583954
73	0x3dc7e6fc	0.09760854
74	0xbd838165	-0.064211644
75	0xbd4ce9cb	-0.05002765
76	0xbd7f35cf	-0.062307175
77	0x3d89f181	0.06735516
78	0x3d4a0957	0.049325313
79	0xbddb499c	-0.10707399
80	0xbd9a32c5	-0.07529215
81	0xbd7068fb	-0.058693867
82	0x3d91eeaa	0.071256
83	0xbdb360d6	-0.08758704
84	0xbd94b85a	-0.07261725
85	0xbd5971d3	-0.053087067
86	0x3d433029	0.04765335
87	0xbdc6afba	-0.09701486
88	0xbd199048	-0.037491113
89	0xbdbb0914	-0.09132591
90	0xbd605673	-0.054769944
91	0x3d90185d	0.07035897
92	0xbdadd342	-0.0848756
93	0xbd9997d9	-0.07499666
94	0x3da27d6b	0.07934078
95	0xbd9720be	-0.07379292
96	0xbdb98023	-0.09057643
97	0xbd8290ee	-0.063752994
98	0xbd4462c9	-0.04794577
99	0x3db7cf66	0.08975105
100	0xbd83269d	-0.06403849
101	0x3d8d6d19	0.06905574
102	0xbd606daf	-0.054792102
103	0x3da082c8	0.078374445
104	0xbda0ff0f	-0.078611486
105	0xbd86f34e	-0.065893754
106	0xbd8bf9fc	-0.0683479
107	0xbd83d5fa	-0.06437297
108	0x3d6a75e1	0.057241324
109	0x3da932a6	0.082616135
110	0x3dba9bfc	0.09111783
111	0x3d9dd586	0.07706742
112	0xbd9d2915	-0.076738514
113	0x3db21e11	0.08697141
114	0x3d225557	0.039632168
115	0xbdcb3988	-0.099230826
116	0xbd10a0f4	-0.035309747
117	0x3dba4064	0.09094313
118	0x3d9ebbcd	0.07750664
119	0x3d5f0c58	0.05445513
120	0xbcffc013	-0.031219518
121	0xbdb1b93c	-0.08677909
122	0xbdce484a	-0.10072382
123	0x3d0c44d5	0.03424533
124	0xbdbaf6a0	-0.09129071
125	0xbd73a6be	-0.05948519
126	0xbd7394a7	-0.059467938
127	0x3d774e45	0.060377378
