LSTM/mlruns/985853723326897120/models/m-4d371f3b885c47598d9d1964e2258e9c/artifacts/data/model.pth (torch, 286885 bytes, 9 tensors)

weight f4 [128, 129]
000000 d7 5f 9d 3d ce 50 cf 3d ea 53 c0 bd 36 f5 df bd
       0.076842956 0.10122834 -0.09391005 -0.10935442
000010 c8 c4 69 bd a6 33 f4 bc 4a 12 06 3d 28 6c 2d bd
       -0.05707243 -0.029809784 0.032732286 -0.042339474
000020 5b 87 64 3d 66 3d 83 bd 25 3b 5b bd 95 62 42 3d
       0.055793148 -0.06408195 -0.0535232 0.047457296
000030 e9 3b 8c 3d 03 e3 b0 3d df 20 d2 3d ce 38 41 bd
       0.068473645 0.08637049 0.10260176 -0.047173314
000040 5c b2 4d bd 67 2f 21 3d 8c 30 9b bd 45 b2 32 3d
       -0.050218925 0.039351847 -0.07577619 0.043627042
000050 21 94 2e bc 45 90 de 3d 5b 32 bf bd 5c 94 68 bd
       -0.010655434 0.10867361 -0.093357764 -0.05678211
000060 a5 06 77 bd fe e6 51 3b b3 e3 07 3d 87 b4 1b bd
       -0.06030907 0.0032028551 0.033176135 -0.03801396
000070 e5 3a 48 bd 18 87 28 3d c2 c0 35 3c bb b9 f3 3c
       -0.04888429 0.04114446 0.01109332 0.02975165
000080 70 18 37 bd 24 0c 86 3d 3e 4a 31 3c 54 fa 08 bd
       -0.04470104 0.065452844 0.010820923 -0.033441857
000090 06 56 48 bd 62 df 81 bd 66 3e 73 bd 01 83 af bc
       -0.048910163 -0.06341435 -0.05938568 -0.021424772
0000a0 02 59 2c bd 24 b3 21 3d 40 16 e9 bc ca 48 70 3d
       -0.042077072 0.039477482 -0.028452992 0.058663167
0000b0 cc 0e da bd 10 4a 83 3d f8 dd 34 3b 85 49 e1 bd
       -0.106473535 0.06410611 0.0027598124 -0.11000351
0000c0 aa c4 c7 3d 8e ac 15 bd 6f 2a 46 bd 46 18 1e 3d
       0.097543076 -0.036541514 -0.04838031 0.038597368
0000d0 fb 6d 57 3d 40 66 70 3c a3 8e d0 bc 9e 97 2f bd
       0.05259512 0.014672816 -0.02545864 -0.042869203
0000e0 69 9b c2 3c ea d5 4c bd db 8c cc 3d eb 73 db bc
       0.023755746 -0.05000869 0.099878035 -0.026788672
0000f0 32 67 b8 3b 06 fc 7b 3c a2 a3 19 bc 1d 9e fb bc
       0.005627536 0.015379911 -0.009377392 -0.030715043
000100 67 5d b3 bd b4 b2 cf 3d d7 99 81 bd dc 96 a7 bd
       -0.087580495 0.10141507 -0.06328171 -0.08183071
000110 47 21 d4 3c 42 1c 84 bc 06 e0 79 3c 05 6f f2 bc
       0.025894774 -0.016126756 0.015251165 -0.029593954
000120 ef 1f 90 3d d1 26 8e 3c 57 9c 00 bd ae 95 47 bd
       0.07037341 0.017352493 -0.031399097 -0.04872673
000130 aa d1 77 3d 5f d2 4a bd 7a aa a2 bc 98 89 81 3c
       0.060502686 -0.04951703 -0.01985668 0.01581268
000140 20 bb a6 bd ba 5b 84 bd 2d ca 2f bd 6a cd 51 3c
       -0.0814116 -0.06462808 -0.04291742 0.012805322
000150 bc e3 29 3d f3 c1 4a bd 6b 25 c6 bd 74 ec 25 3d
       0.04147695 -0.04950137 -0.09675106 0.040508702
000160 1e a1 df bb cd f2 f4 3d 5e b7 79 bd 79 d3 1f bc
       -0.0068246266 0.11960373 -0.06096589 -0.009755009
000170 bf b5 2a 3d 6e 09 43 3d cb cd c4 bd 2c 65 d5 3d
       0.041677233 0.047616415 -0.096095644 0.10419688
000180 33 49 45 3c dd 29 3c bd 2a 0d 02 bd 6f 4e 7d 3d
       0.012041378 -0.04593836 -0.031750835 0.06184238
000190 5f b6 80 bd 8c 7e af 3d c1 fa 54 3d 84 3d 89 bc
       -0.062847845 0.08569059 0.05199695 -0.016752966
0001a0 e5 26 ab 3d be 7c 8b 3c 2f c8 88 bc 9b a0 51 3d
       0.08357028 0.017027255 -0.016697017 0.051178556
0001b0 59 23 4d bc d1 b1 b4 bd fe 7a e8 3b 8d e3 ac bd
       -0.012520635 -0.08822978 0.00709474 -0.08441839
0001c0 1b 37 83 bd 02 f0 67 bc f2 cd 6b bd 8a 6d 4b 3d
       -0.06406995 -0.014156343 -0.05756945 0.04966501
0001d0 b8 86 83 bd f9 91 83 3d 55 9e b7 3c ab 1d dc bc
       -0.0642218 0.064243264 0.022414366 -0.026869616
0001e0 42 02 3d 3d c5 0b a1 bd 18 ab 14 bd ab cf 08 3d
       0.04614473 -0.07863573 -0.03629598 0.033401173
0001f0 f5 1c d1 bd c5 12 0b 3c ae 94 21 3d 26 8c e0 bd
       -0.10210601 0.008488362 0.039448433 -0.10964231
000200 f3 0a 8f 3b 52 28 dd bc 5f b3 3c bc ed 59 ae 3b
       0.004365319 -0.026996765 -0.011517375 0.0053207786
000210 cc d6 b5 bd 8e bd 90 bc 2a e1 29 bd 0f 38 b9 3d
       -0.0887886 -0.017668512 -0.0414745 0.090438955
000220 40 73 3f 3d 79 f6 36 3b cf 85 e5 bd 3f ff 39 bd
       0.04674077 0.0027917905 -0.112071626 -0.045409437
000230 66 a1 7f bc 59 5b b3 3c db ce 84 bd b4 49 b3 bc
       -0.015602445 0.021894144 -0.06484767 -0.02188573
000240 c6 76 3e 3d d3 3e 73 bd 4c 19 96 3d 99 ac 37 bd
       0.04649999 -0.059386086 0.07329044 -0.044842336
000250 7d c9 ac 3d 28 c0 a5 3c ca 84 e8 bb c5 aa b8 bc
       0.08436868 0.020233229 -0.007095908 -0.022542367
000260 41 52 cf bc f5 5e 43 bd 24 e9 a3 3b bf 0a 5b bd
       -0.025307776 -0.04769798 0.0050021578 -0.053477045
000270 2d 68 a1 3c 0b 03 8f bb b3 c5 3b bd 02 23 81 bd
       0.019702995 -0.0043643764 -0.045842838 -0.06305505
000280 a4 92 af bc 51 ab 17 bc d8 2d 78 3d 2b ac 8c 3d
       -0.021432228 -0.009257154 0.060590595 0.06868776
000290 e1 da 0b bd 02 37 54 bd 68 b7 33 bc e2 5f 1d bd
       -0.034144286 -0.051810272 -0.01096902 -0.03842152
0002a0 23 db 55 3d 93 e5 8a 3d d0 2a df bc 61 e7 5e 3c
       0.05221094 0.06782069 -0.027242094 0.01360497
0002b0 40 7c a8 3c 98 31 10 3d 86 9e 97 bc 27 35 c6 bc
       0.02056706 0.035203546 -0.018508207 -0.024195267
0002c0 28 43 d5 3b c2 98 19 3c 87 00 4f 3c cf 87 e4 3c
       0.00650825 0.009374799 0.012634403 0.02789679
0002d0 ce 17 57 bd 72 ea 6e bd 03 d6 67 3b 20 e4 9b 3c
       -0.052512936 -0.058329053 0.0035375364 0.019029677
0002e0 04 3f 5a bd 15 2f 58 3d 56 d7 0f bb 31 6d 14 3d
       -0.053282753 0.052779276 -0.0021948419 0.036236946
0002f0 fa b7 1d b7 77 6d 31 bd 64 9a 95 bd a5 fb 2d 3d
       -9.400765e-06 -0.043317284 -0.07304838 0.042476315
000300 22 f0 34 3d 00 59 9d bd 4a 9f 79 bd 06 b1 95 bd
       0.04417432 -0.07682991 -0.060942926 -0.07309155
000310 74 69 c5 3c 1b 44 00 3d f8 89 49 3c 43 2d 89 3d
       0.024098136 0.03131495 0.012300961 0.06698086
000320 8e 1a a0 bd a2 04 f2 bc 6f 06 82 3c a6 b2 14 bc
       -0.07817565 -0.029543225 0.015872208 -0.009075796
000330 1c 35 0b 3d e7 6c 86 3d ac e5 17 3d dd 13 d2 bc
       0.033986196 0.0656374 0.037084267 -0.025644237
000340 dd ea 26 bd e9 37 89 bd 41 b8 c3 bb f9 f8 97 bd
       -0.040751327 -0.06700117 -0.0059728925 -0.07420535
000350 0f 4e 4e 3d 8d 1d 56 3d e2 8d 1a bb f8 69 83 3c
       0.05036741 0.052274276 -0.0023583104 0.01604174
000360 48 a8 3f bd 77 12 56 3d ea 52 72 3d b8 c0 bc 3c
       -0.046791345 0.052263703 0.059161104 0.023041114
000370 44 0f d7 bc 16 fb 27 bd 74 b9 9b 3d 31 9f c2 3c
       -0.026252396 -0.04101094 0.07603732 0.023757549
000380 fb 9e 94 bc e1 b3 9e bd c2 56 81 bd d2 e3 3a 3d
       -0.018142214 -0.07749153 -0.06315376 0.045627423
000390 7e 49 38 bd 9d 65 b7 bd e9 96 61 bd 96 11 3c 3d
       -0.044991963 -0.08954928 -0.05507556 0.04591521
0003a0 94 77 f1 bc ae 3a 4a bd cf b8 05 3c d1 54 ae 3c
       -0.029475965 -0.049372368 0.008161738 0.021280678
0003b0 3f a9 ad bd 0d 15 46 bb 46 b2 35 bd 6f b1 a5 bd
       -0.08479547 -0.003022495 -0.044359468 -0.080904834
0003c0 f1 42 cf bc d3 1c 1e 3d 0a ed 19 bc 0d ee 81 bd
       -0.025300475 0.038601708 -0.009394893 -0.06344233
0003d0 3a 07 a0 3d 84 30 78 bc 62 4c 0e 3c ae af 52 3b
       0.07813878 -0.015148286 0.008685203 0.003214817
0003e0 d7 6c 51 bc 5b 9e 79 bd 3f 48 ae bd 6d e8 b7 3c
       -0.012782297 -0.060942035 -0.085098736 0.022449696
0003f0 56 78 58 3d b9 03 5c bb 6e c9 58 3d 17 7f dd 3c
       0.052849136 -0.0033571555 0.052926473 0.02703814

bias f4 [128]
000000 d1 38 24 bd 54 e0 72 3c 93 bd 94 bd e9 14 f0 3c
       -0.040093247 0.014823992 -0.07262721 0.029306846
000010 f4 3b 31 bd 93 94 c8 3d 62 73 ba 3c 67 a9 84 bc
       -0.043270066 0.09793963 0.022760097 -0.016194059
000020 e2 12 28 bb 50 41 16 3d 80 f2 40 bc c3 ec ce 3d
       -0.002564602 0.03668338 -0.0117765665 0.101037525
000030 40 32 2b ba 44 c7 5a bd 61 fb ec bc 82 fa 81 bd
       -0.000653062 -0.05341269 -0.02892846 -0.06346609
000040 bb 92 46 bd e0 14 1c 3d b4 f8 64 bd ac 35 92 bc
       -0.048479777 0.038105845 -0.055901244 -0.017847858
000050 d7 be 12 3d c6 a3 92 3d b0 db bd 3d fa 7b b8 3d
       0.03582653 0.071601436 0.09270418 0.09008022
000060 3a 5d 70 bc 05 c7 e8 3d 3d e7 d2 bc a3 68 81 3d
       -0.014670664 0.11366085 -0.025745029 0.06318786
000070 b5 d0 07 3c 5d a5 d7 3c ec cb ca 3d 0f b7 9e bd
       0.008289506 0.026323969 0.09902176 -0.077497594
000080 76 50 ba 3d 41 2c c8 3d 88 83 16 3d 23 01 b1 3d
       0.09097378 0.09774066 0.03674653 0.08642795
000090 f4 35 d5 3d 9e 41 aa 3d d7 08 b6 3d ba c5 cf 3c
       0.10410681 0.08313297 0.08888405 0.025362838
0000a0 03 26 ae 3d 34 34 4f bd 93 35 c2 bc 9f 26 07 3d
       0.08503344 -0.050586894 -0.023707187 0.032995816
0000b0 ee 9b bd 3d 00 77 9d 3d 7c a7 4e 3d 47 20 1b bd
       0.09258257 0.07688713 0.050452694 -0.03787258
0000c0 cd bd b6 3d 3c d6 ce bc 48 4d 3f bd 4e 64 07 bc
       0.089229204 -0.02524864 -0.04670456 -0.008263661
0000d0 7d cf af 3d 83 40 cc bc 09 75 b5 bb 24 21 8b bd
       0.08584497 -0.024933105 -0.0055376333 -0.067934304
0000e0 09 5b 6b bd e3 22 0c bd a9 c6 ca 3d fe 95 9c 3d
       -0.057459865 -0.034212958 0.09901173 0.07645796
0000f0 d8 61 9d 3d 72 06 d9 3d 39 f7 2a 3c e9 96 b3 3d
       0.07684678 0.105969325 0.010434919 0.08769018
000100 a5 38 1f 3d ca 08 c4 3d a1 0d 77 3d 9b 2a 5a 3c
       0.03887238 0.09571989 0.060315732 0.013315822
000110 5d dd 12 3d 13 02 4c 3d e6 7e 44 bd 39 b4 9f bc
       0.03585564 0.049806666 -0.047972582 -0.019495117
000120 97 d3 1e 3c 0b f9 0b bd 01 7c c1 3d 5a 93 fa 3c
       0.009694002 -0.034173053 0.0944748 0.03058784
000130 b9 37 31 bb b4 95 a3 3c 5d ca 25 3c b5 27 9a bc
       -0.002704127 0.019968845 0.010119048 -0.018817762
000140 f1 c0 9d 3c ab 3e 9f bc 37 cc 0f 3d 41 41 3c bc
       0.01925704 -0.019439062 0.035106864 -0.011490167
000150 ab c9 07 3d 47 0e 9c 3d 70 9a 8b 3d e0 fc ec bc
       0.03315131 0.07619911 0.06816566 -0.028929174
000160 f7 92 49 3c f6 cb cd 3c fc 69 6a bd 7d 54 10 bd
       0.012303106 0.02512167 -0.05722998 -0.035236824
000170 40 80 cc 3d 78 f1 cf bb c3 16 56 bd ba fe 38 3d
       0.09985399 -0.006345924 -0.0522678 0.0451648
000180 c7 7c c3 bc 5b b9 93 3c 56 9c 0e bd 10 2a d4 3d
       -0.02386321 0.01803272 -0.034817062 0.10359585
000190 51 76 61 bc 3d c7 7e 3d 66 9c 32 bc e1 bc 96 bc
       -0.013761119 0.062201727 -0.010901546 -0.018400611
0001a0 65 7d a4 3d c2 49 37 3d 0a 84 b2 3d 6c 0a 96 3c
       0.080317296 0.044748075 0.08716591 0.018315516
0001b0 35 f6 c2 3c af 05 2b 3b 8f f4 48 bd 65 fe 17 bd
       0.023799041 0.0026095917 -0.049061354 -0.037107844
0001c0 8a 97 9a 3d 45 e3 88 3d 2a 76 71 bc 51 5a 04 bd
       0.07548435 0.06683973 -0.014737645 -0.032312695
0001d0 9f 59 ad bc 8d cf fd bc 6a ff 35 3c d5 3f 17 3d
       -0.021160899 -0.030982757 0.011108259 0.03692611
0001e0 fc 58 be bc 0c d7 a9 3d 2f 7e c1 3d 6f 24 b8 39
       -0.02323579 0.0829297 0.09447896 0.0003512236
0001f0 0e af d0 3d 70 d5 0b bd 90 65 a7 bd 86 f4 65 3c
       0.10189639 -0.034139097 -0.081736684 0.01403535

weight f4 [128, 129]
000000 3e 2e cd 3d ca f9 d9 3d e9 0f 2b 3b 0a 8b 5d 3c
       0.100185856 0.106433466 0.0026102012 0.013521919
000010 4c aa 1f 3d de c2 7e 3d 8a 44 43 3d 09 1b d7 bd
       0.038980767 0.06219756 0.047672786 -0.105032034
000020 df 47 ba bd 1c 9b b6 3c e1 8d 4b bd fb f3 ad 3b
       -0.090957396 0.022290759 -0.049695853 0.0053086258
000030 29 a2 51 bd ae 6b 80 bd 06 99 3a 3c fa 76 34 3d
       -0.05118004 -0.06270538 0.011389023 0.044058777
000040 0c 7c d8 bc 66 01 c1 3d 73 5a f9 bc f3 73 b9 bb
       -0.026426338 0.09424095 -0.030438637 -0.005659574
000050 19 e8 c5 3d 4a 4b 42 3d ee 6a 94 bd 12 00 9b 3d
       0.0966341 0.047435082 -0.07246958 0.07568373
000060 58 0e 90 3c a3 ed 39 3d ee fd 47 bd f0 a8 0b 3d
       0.017584965 0.045392644 -0.04882615 0.03409666
000070 61 f4 5b bd f1 77 69 ba 6a d2 39 bd 68 8a 9a 3d
       -0.053699855 -0.00089061173 -0.045366682 0.0754593
000080 af dc 72 3d 0a e7 a4 3d d5 7c 68 bd b0 09 9a 3a
       0.05929249 0.0805188 -0.056759674 0.0011752155
000090 ee 95 cc bd 16 be b0 bd c7 87 b9 bc ae 06 91 3d
       -0.09989534 -0.08630006 -0.022647751 0.07081352
0000a0 da 1d 81 bc 75 5e 44 bd 88 c5 5e 3d c7 50 d9 3c
       -0.015761305 -0.047941644 0.0543876 0.026527775
0000b0 9f 65 15 3c a7 eb 2a bd 54 08 3b bd 11 07 9e 3d
       0.009118467 -0.04172864 -0.04566224 0.077161916
0000c0 07 57 e9 3d 01 6e ea bc 56 6a 87 3d 2b b9 a2 3d
       0.11393552 -0.028616907 0.06612079 0.07945474
0000d0 b3 85 41 3c 99 e1 b9 3d 51 47 77 3d 7c db 5e 3d
       0.0118116615 0.090762325 0.060370747 0.054408535
0000e0 74 5a 6a bd f1 f5 b1 3d c3 54 c9 3d 45 c9 54 bd
       -0.05721517 0.08689488 0.0983062 -0.051949758
0000f0 6b 39 ac 3d 72 9f 0d bd 72 ad 8f bd 07 56 0f 3d
       0.08409389 -0.034575887 -0.07015504 0.03499415
000100 73 00 04 bd 73 93 30 bc 11 03 af 3d 6d 7e 86 3c
       -0.03222699 -0.010777342 0.08545507 0.016417706
000110 ae 94 80 3d 97 15 e5 bc b7 bc b0 bd 7f 0e 7c bd
       0.062783584 -0.027964396 -0.086297445 -0.061537262
000120 aa 67 10 bd 04 c0 78 3d 1b 2b 93 bd bb c1 af bb
       -0.03525511 0.060729995 -0.07185956 -0.0053636706
000130 d3 d8 6d 3c dc 7a 4e bd ed aa cf 3d 7c 91 15 bd
       0.014517027 -0.050410137 0.101400234 -0.036515698
000140 79 39 4b 3d d9 27 9f bd 89 cd a5 3d 16 04 c3 3d
       0.049615357 -0.07771272 0.08095843 0.09522264
000150 65 ad 1a bd c6 5c a6 3d 6b 83 78 bd bb bc b8 bb
       -0.03776302 0.08123164 -0.060672205 -0.005637733
000160 cb ac 98 3d 2a e5 74 3d af 53 22 3d 79 0f 25 3d
       0.07454833 0.05978886 0.03963059 0.04029796
000170 17 d2 62 bd fc ee 83 3d 43 39 b5 bc 75 57 ec 3c
       -0.05537614 0.06442067 -0.022122031 0.028850297
000180 70 56 8c 3d dc 93 43 3d 66 52 a7 bd 4a 9e 63 3d
       0.06852424 0.04774843 -0.08170013 0.055570878
000190 9d f7 13 3d df 69 0b bd b7 f5 83 bd aa ec 1f 3d
       0.036124814 -0.034036513 -0.06443351 0.03904406
0001a0 32 2a 47 3d dc 97 ff bc 21 91 4c 3d aa 9d 0e bd
       0.048624225 -0.031200342 0.049943093 -0.03481833
0001b0 1f d4 ad bd a8 51 a9 3c d0 5d 85 bb 23 1f 79 bd
       -0.084877245 0.02066882 -0.004070021 -0.06082071
0001c0 cd 8f ee bc 51 ca 78 3b 87 80 ad 3d 52 99 7a bc
       -0.029121304 0.0037962387 0.0847178 -0.0152953435
0001d0 bd 29 6e 3c fa 6a ba 3d 89 c8 d0 bd 35 68 23 bd
       0.014536318 0.091024354 -0.10194499 -0.0398943
0001e0 e0 97 de bd 3c c6 1c 3d a6 cc 06 3d 7e 05 18 3d
       -0.108688116 0.03827499 0.03291001 0.037114613
0001f0 80 39 b6 bd b8 f0 4b 3d e2 a2 41 bd 00 4e c4 bc
       -0.08897686 0.049790114 -0.047274478 -0.023962975
000200 d9 39 b9 3c e0 de 9f bd fb 74 8e 3d 65 d3 40 3d
       0.022610592 -0.07806182 0.06955906 0.0470766
000210 cb 31 a4 bc c8 e2 8b bd bc c1 aa 3d 27 4f 67 bd
       -0.020043274 -0.068303645 0.08337733 -0.05647197
000220 fe 5f be bc 6c 2d 85 bd 4f f8 ba 3d 89 a5 92 bd
       -0.023239132 -0.06502804 0.09129392 -0.071604796
000230 d9 3f 47 bd ad ed 2a 3c 96 ea 1e bd 49 9a 1d bc
       -0.048644874 0.010432643 -0.038797937 -0.009619304
000240 b1 f4 27 bd 8d 39 23 bd 31 ce 8e bd 87 85 85 bd
       -0.04100484 -0.039849807 -0.06972922 -0.06519609
000250 69 2f b6 bd 95 4a 47 3c f2 fd e6 bc cc f6 aa 3d
       -0.088957615 0.012163778 -0.028197262 0.08347854
000260 8c 94 02 bc ed e4 f7 3c e3 6d c0 bb 27 51 54 bc
       -0.007969987 0.030260528 -0.0058724745 -0.012958801
000270 9b fd bc bd d3 b7 93 3b 1a ce 8f 3d 59 84 38 3d
       -0.09228059 0.0045079975 0.07021733 0.04504809
000280 b2 27 e3 38 43 53 05 3d 5b 97 0e 3c c5 68 06 3b
       0.00010831597 0.032550108 0.008703078 0.0020509225
000290 45 a9 c9 3c 4e 41 6b bd 7d 26 94 bc e6 f6 4d 3d
       0.024616847 -0.057435326 -0.018084759 0.05028429
0002a0 ec 3c 66 3d d3 c0 af 3d bf a0 72 bd ec f9 45 3d
       0.056210443 0.085817 -0.05923533 0.048334047
0002b0 25 fb ad 3c f2 a4 2a 3d e8 db fc bc 25 17 01 bc
       0.02123792 0.04166121 -0.030866578 -0.007879053
0002c0 4f ca ff 3c b9 8f 41 3d 03 92 ac 3d 0a 10 8e bb
       0.031224398 0.047256205 0.08426287 -0.004335408
0002d0 29 16 09 bd 45 cc 9e 3b 9b 7a a1 bd 3e ff a9 39
       -0.0334684 0.004846128 -0.07884713 0.00032424362
0002e0 63 5f b6 3d 5e c8 87 3d 8c 7e d8 bd 23 8b 13 3d
       0.08904912 0.06630014 -0.10571012 0.036021363
0002f0 a5 5f 87 3d 3c 90 40 3c 26 23 e1 bc c7 1a 63 bc
       0.066100396 0.011753138 -0.02748258 -0.013861365
000300 e1 7e 82 bd e1 1a 9b bc 2d 8c 33 3d 9e 2b 73 bd
       -0.063718565 -0.018933715 0.043834854 -0.05936777
000310 7d 02 69 3d fd 07 d1 3d ef 21 c5 3d 8b f8 ce 3c
       0.05688714 0.10206602 0.09625613 0.025264999
000320 bc b0 ac 3d 6b 1f 9a bd 4c 8f ab 3d 0f a0 2a bb
       0.08432147 -0.07525524 0.08376941 -0.0026035344
000330 5a e3 b4 bb 99 99 98 bb 2c 54 57 3d be db 6b 3d
       -0.0055202665 -0.004656982 0.052570507 0.05758261
000340 19 86 0d 3d b2 e5 6c 3d 77 db e9 bc ad 9d 40 3d
       0.034551714 0.057836242 -0.028547032 0.04702537
000350 55 77 62 bd 14 65 41 3c 98 44 d6 bd e7 83 bb 3d
       -0.055289585 0.011803884 -0.10462302 0.09156018
000360 af df 14 bd 82 c2 ba bd 2d 70 5e 3d 62 0a d4 bc
       -0.036346134 -0.09119131 0.054306198 -0.025883857
000370 5c fb b3 3d e3 de 10 bd 08 83 3d bc a7 df 95 bd
       0.08788177 -0.03536881 -0.011566885 -0.07318049
000380 07 c2 3b bd f4 bd 36 3b 74 17 f6 bb 7f e4 91 3d
       -0.045839336 0.0027884217 -0.00751012 0.0712366
000390 0c 0e 4f bd 29 7c 34 bd 83 9f c1 3d 71 29 9c 3d
       -0.050550506 -0.04406372 0.094542526 0.07625092
0003a0 4f 30 9e 3d 39 bc 80 3d ff 3f 4e bd 08 dc ee 3a
       0.07724058 0.062859006 -0.050354 0.0018223533
0003b0 9f 4d dd bc d8 29 1e 3d d1 f7 40 3d 77 ac a0 3d
       -0.027014552 0.038614124 0.047111336 0.07845395
0003c0 56 f6 87 3c d7 b3 a1 3c 5e 2b aa 3d bf aa bc bd
       0.016596954 0.019739075 0.08309053 -0.09212255
0003d0 0f 97 02 bd 8e b0 45 bd 8e a1 52 bd ab 64 49 3d
       -0.031882342 -0.04826408 -0.0514236 0.04916827
0003e0 d6 ee 89 3d 5f f6 0f 3d de 0b 06 3b 1c cc 33 bd
       0.067350075 0.035147067 0.002045385 -0.043895826
0003f0 b1 60 36 bc bf 26 39 3c 33 52 b7 3d e0 68 0d bb
       -0.011131451 0.011300742 0.08951225 -0.0021577403

bias f4 [128]
000000 63 2c 66 3d ce 1d 9f bd 95 27 1a bd a2 5f bf bc
       0.056194674 -0.07769357 -0.037635405 -0.023361031
000010 bf 54 86 3d c1 99 0d 3d fa 77 35 3d 3e af 36 bd
       0.06559133 0.03457046 0.04430387 -0.044600718
000020 de 42 77 bd b4 c7 83 3c 87 53 de bc 59 93 3a 3d
       -0.060366504 0.016086437 -0.027139438 0.045550678
000030 70 87 f1 3c 6d 5b 71 3d ee b4 44 bb 46 ee 72 bc
       0.029483527 0.05892508 -0.003001507 -0.014827317
000040 91 88 2a bd 79 de 4f bd 23 9f de 3c 48 01 0f bd
       -0.041634146 -0.050749276 0.027175492 -0.03491333
000050 88 c4 91 3d f2 ab b7 bc f6 41 84 3d 73 4c 76 bd
       0.071175635 -0.022420857 0.064578936 -0.0601315
000060 25 bd b4 bc bd 9f aa bc 98 fd 08 bd d0 19 6d bd
       -0.022062847 -0.020828122 -0.03344497 -0.057885945
000070 62 ac 90 3d 7f ad 8d bd 7f 22 30 bd d4 9a c1 bc
       0.070641294 -0.069178574 -0.043001648 -0.023633398
000080 9f 2b 98 3d d0 c7 c7 3c 01 9c fe bb 39 9e e9 bc
       0.07430195 0.02438727 -0.007770062 -0.02851783
000090 e8 9c a0 bc f5 8a 8f bd 0f ae d2 ba fd ee 51 3c
       -0.019606069 -0.07008926 -0.0016073602 0.012813327
0000a0 61 61 01 3d cd 19 9a 3b 57 88 cb 3c 8a 91 59 bd
       0.03158701 0.0047027827 0.024845285 -0.053117312
0000b0 0b 74 13 3d 26 38 14 3d f9 09 a9 bd e0 6e 34 3d
       0.03599934 0.03618636 -0.08253855 0.04405105
0000c0 86 ec df bb 8d 7a 9d bc 85 04 32 bd bd 8b 78 3d
       -0.0068336157 -0.019223476 -0.04346134 0.06068014
0000d0 dd fb d2 bb 18 da 99 bc 9a 42 1d bd ea 11 a8 3d
       -0.006438716 -0.018780753 -0.038393594 0.08206542
0000e0 88 9d 4b bd b2 ba 38 3d 8c 66 8b bd ef 28 1a bd
       -0.04971078 0.04509992 -0.06806669 -0.037636694
0000f0 01 e7 b3 bc fd 01 83 bc 9f da a3 bc ba 35 d8 3c
       -0.021960737 -0.015992159 -0.020001708 0.026392806
000100 d1 3d 87 3d e9 3c d7 3a 2b b2 72 bd fc fc 9c ba
       0.066035874 0.0016421351 -0.059251945 -0.0011977251
000110 a3 7e 7c bd f1 e9 50 3d 14 87 9f bc 10 76 b9 3c
       -0.061644208 0.051004354 -0.01947359 0.022639304
000120 36 8b bc bc c8 68 02 bc 54 2a 60 bd e1 9a 21 bd
       -0.0230156 -0.007959552 -0.054727867 -0.039454345
000130 01 fd 57 bd 0f 48 2e bb 11 66 1b 3d 28 44 30 bd
       -0.052731518 -0.0026593243 0.037939135 -0.04303375
000140 8d 4e 45 3d da fb 97 bd 1f 4e 48 3c d2 18 1d 3d
       0.048170615 -0.07421084 0.012225657 0.03835375
000150 22 65 80 3c 50 08 16 bd 91 83 9b 3d f1 e3 81 3d
       0.015673224 -0.03662902 0.07593454 0.063423045
000160 31 25 21 3d 32 f8 35 bd 43 0d f9 3c a8 05 4a bc
       0.03934211 -0.04442615 0.030401831 -0.01233045
000170 d9 15 80 bc 0b 4e 6c bd 19 34 88 3d 5c 0d 5b bd
       -0.015635418 -0.057691615 0.06650562 -0.053479537
000180 71 e3 f5 3b 9b 49 14 3c 20 da 67 3b a0 bb 58 bc
       0.00750392 0.009050752 0.0035377815 -0.013228327
000190 c9 57 dd 3c 73 b8 45 bd 7e cb a8 3c 49 a1 af 3c
       0.027019398 -0.048271608 0.020604845 0.021439211
0001a0 3e a9 6e 3d 25 d9 13 bd b7 b1 8c bd 7b 62 88 3d
       0.05826687 -0.036095757 -0.06869834 0.06659409
0001b0 89 29 56 bd c6 fe 1c 3d c0 fe 5f bd 84 0f fb 3c
       -0.052285705 0.03832891 -0.054686308 0.030647047
0001c0 e3 49 20 3d 30 93 a2 bc 29 6d 10 3d bd 89 61 3d
       0.039132964 -0.019845575 0.035260353 0.055062998
0001d0 bc b2 8f 3c f3 97 14 bc 62 d7 89 bd f1 9d 2a 3d
       0.017541282 -0.009069431 -0.06730534 0.04165453
0001e0 1d 15 61 3c cd 2f 4a bd 76 ca 76 3c 71 8b 55 bd
       0.013737944 -0.049361993 0.015062919 -0.052134935
0001f0 f6 7b 1a 3d 5b bc 67 bd 06 d4 09 bd 77 2c 8c bd
       0.037715875 -0.056576114 -0.033649467 -0.068444185

weight f4 [128, 129]
000000 ce a9 93 3d 11 ad 38 bc a2 df ca 3c 84 93 e8 3c
       0.07210122 -0.011271731 0.02476484 0.028390653
000010 d7 9b f6 3c 35 4e 9c 3d 67 13 03 3c 0d 95 76 bd
       0.030103607 0.07632104 0.008000231 -0.06020074
000020 f2 59 1e bd 20 95 34 3c 3f c1 cc 3c 75 41 bd bd
       -0.038659997 0.011021882 0.02499449 -0.092410006
000030 a7 97 8a 3d af fc 96 3c 28 15 d9 bb 7a d9 86 3d
       0.06767207 0.018431036 -0.0066248365 0.06584449
000040 13 76 a3 bd d5 31 93 3c e3 04 f2 3c ad 50 89 3d
       -0.07981505 0.017968098 0.029543346 0.06704841
000050 d4 c8 7b 3d 52 af f5 3d 77 c3 16 bd b6 51 ab 3d
       0.06147082 0.1199633 -0.036807504 0.083651945
000060 4c b6 e6 bc f3 14 9c bd c2 ac ce 3b 8d b0 dc 3c
       -0.028163098 -0.07621183 0.0063072154 0.026939655
000070 d0 98 6b 3c cb 6d e2 3d 47 ba d8 bc 93 46 ed 3c
       0.014379695 0.110560976 -0.026456011 0.028964316
000080 7b c5 97 3d 97 fb 1f bd 23 be ba bb 99 37 cd bd
       0.07410713 -0.039058294 -0.0056989356 -0.1002037
000090 d2 cb e3 3b 23 2b b8 bc 04 8b f0 bb 9b f2 33 3d
       0.0069517875 -0.022481507 -0.0073407907 0.04393254
0000a0 cd 98 74 bd 83 ff b6 3d 24 07 30 bd 29 66 85 3d
       -0.059716035 0.08935454 -0.04297556 0.06513626
0000b0 a2 fe a8 bd b6 da c1 3d 56 fd 83 bd e5 f6 ec bc
       -0.08251692 0.09465544 -0.06444804 -0.028926322
0000c0 df 01 f7 3c 8c 6b 42 bd 66 0e cb bd 56 ef 82 bd
       0.03015226 -0.047465846 -0.09914856 -0.06393306
0000d0 f6 8d 51 39 86 ab 5f bd a6 79 80 3d 8e 5e 81 3d
       0.00019984678 -0.054606937 0.062732026 0.06316863
0000e0 d4 39 8f bc 8e d3 a3 bb 63 c0 3c bd 07 f1 83 3d
       -0.01748363 -0.0049995845 -0.04608191 0.06442457
0000f0 d2 ff 19 3c ba c7 35 bd 04 78 3e bb 02 83 10 bc
       0.009399371 -0.044379927 -0.0029063234 -0.008820297
000100 e3 62 21 3d 85 a6 a7 3b ef 69 2c 3d ce fd 88 3c
       0.039400946 0.005116286 0.042093214 0.016722586
000110 0b cb c4 bc fa 5c d8 3c ed c4 6d 3c ee 37 ee bc
       -0.0240226 0.026411522 0.014512283 -0.029079404
000120 8f 83 8c 3c f2 1e 8e 3c cd f4 fa bc 87 80 6c 3d
       0.017152576 0.01734874 -0.030634308 0.05773976
000130 3f d3 38 3c 85 81 df 3c e9 22 7b bc 17 03 99 ba
       0.011280834 0.02728344 -0.015328147 -0.0011673894
000140 a7 28 93 3c 7b aa 14 3d 00 01 0a bd 87 35 dd bc
       0.01796372 0.036295395 -0.03369236 -0.027003063
000150 50 de a7 3c 10 73 94 3c ab a5 d2 3c b8 ee de 3c
       0.020491749 0.018121272 0.025713762 0.02721344
000160 0d a4 30 3d 82 84 d0 bc a6 2e 7b bd cf f8 a9 3b
       0.0431252 -0.02545381 -0.061323784 0.005187131
000170 9e 37 17 bd 02 a7 de bb 05 65 2c bd de 61 ab bc
       -0.036918275 -0.006794811 -0.042088527 -0.02092069
000180 a0 2d 50 bd 65 69 c1 bd 6e 98 4e bd ab 60 a6 3d
       -0.05082476 -0.094439305 -0.050438337 0.08123907
000190 6d a3 08 bd 68 34 de bc 1c 81 2f 3d 63 91 3d bd
       -0.03335898 -0.027124599 0.042847738 -0.04628123
0001a0 ea 03 50 bd 60 45 bb 3d 1d bb a0 bd 01 8c 13 bd
       -0.050784983 0.091440916 -0.07848189 -0.03602219
0001b0 74 49 91 3d 63 3f ed 3c 64 4b 94 3d 61 37 a8 bd
       0.07094088 0.02896089 0.07240942 -0.08213688
0001c0 5b 54 d9 3c 72 6f ba 3d 3a 31 19 3d ac f3 cb 3d
       0.026529482 0.09103288 0.03740046 0.09958586
0001d0 44 b1 b7 bc 61 23 07 bd 56 7d c9 3c cb 34 68 3d
       -0.022423394 -0.032992724 0.024595898 0.056690972
0001e0 4b 44 af 3d 0d 79 5b bc 7a 18 05 bd d0 a5 c6 bc
       0.08557948 -0.01339556 -0.032494046 -0.024248987
0001f0 8a 2d 8b bd 25 3a aa bd fa a9 c1 bd 30 f8 b5 bd
       -0.06795795 -0.083118714 -0.094562486 -0.08885229
000200 98 3d 9d bd f8 3b 2f 3d ab 66 2e bd 06 de 58 bd
       -0.07677764 0.0427818 -0.04257838 -0.052946113
000210 ab 5a e2 bd 6b 9b 49 bc 36 4b db 3d 45 a9 68 bd
       -0.1105245 -0.012305121 0.10707705 -0.056802053
000220 5c 97 98 3d 70 72 80 3d 51 6c 1e 3d c8 5d 7f bc
       0.074507445 0.06271827 0.038677517 -0.015586324
000230 33 50 7d bd 79 f5 18 3d 0b 1b f4 bc 18 e2 43 3d
       -0.061844062 0.037343476 -0.029798051 0.04782304
000240 ec 26 f8 b9 eb 6d 7c 3d e2 5d 98 bd 32 3a b4 bd
       -0.00047331245 0.061628263 -0.07439782 -0.088001624
000250 c0 f8 80 bd 51 d3 07 3d e3 8a 7c bd 04 d5 56 3d
       -0.06297445 0.03316051 -0.06165589 0.05244924
000260 2a 94 ad 3d 50 df 8a 3d d4 84 7f bd 91 4f 7b bd
       0.08475526 0.06780875 -0.062382534 -0.061355177
000270 a3 08 cd 3a b1 b9 9c 3d 8d b0 0d 3d 92 af 08 3d
       0.0015642833 0.07652605 0.0345922 0.033370562
000280 a6 55 a1 3d 67 ac 98 3d e6 f8 3a 3d 72 fa 2b bc
       0.07877664 0.07454758 0.045647524 -0.0104967225
000290 d9 a8 b7 3c c5 00 8a bc 9d b0 53 3c d6 53 a8 bd
       0.02241938 -0.01684607 0.012920526 -0.082191154
0002a0 35 c4 6b bd ee 8d 8d 3d 2e 47 99 3c cc e9 49 3d
       -0.057560164 0.069118366 0.018710699 0.04929523
0002b0 b4 86 9a 3d 5f 40 6e 3d 20 fd 71 3d d3 74 56 bd
       0.07545224 0.058166858 0.05907929 -0.052357506
0002c0 13 6c 60 3b 2b 2d 01 3b 3b 54 53 3d d2 de b1 3c
       0.0034244105 0.001971076 0.051594 0.021712694
0002d0 24 5b 33 bd 96 8e a4 bd 68 f7 73 bd f3 b3 a0 bb
       -0.04378809 -0.080350086 -0.059562117 -0.004904264
0002e0 55 62 55 3b e0 be 1b bb 9c 25 2f 3c db 77 8b 3d
       0.003255983 -0.0023764893 0.010690119 0.0680997
0002f0 f1 92 0d 3d eb e9 30 bd a1 4b 09 3c 35 20 7f 3d
       0.034563962 -0.04319183 0.008379848 0.062286574
000300 4e 41 e5 3c 1f f9 8f bd b0 ea 5f bd 85 ff ab 3d
       0.027985241 -0.07029938 -0.054667175 0.08398346
000310 de 5a 98 3d b0 ae 7e 3d 5a c5 1d bc 10 1a a8 bc
       0.074392065 0.062178314 -0.009629572 -0.02052024
000320 bd bf 8f bb 6a 2e 2f 3d 09 c4 8f 3d a1 dd 8f 3d
       -0.0043868707 0.042768873 0.070198126 0.07024694
000330 f7 09 8b bd 25 fa 77 bc 18 55 82 bd 48 19 95 bd
       -0.0678901 -0.015135323 -0.063638866 -0.07280213
000340 a8 58 9a 3d d0 b6 ae 3c ac c4 18 bd 7c b8 f3 3c
       0.07536441 0.021327406 -0.037296936 0.029751055
000350 9e c5 b5 3d 1a ac 18 bd 18 00 85 bd bc 0d 26 bd
       0.08875583 -0.037273504 -0.064941585 -0.040540442
000360 b1 f9 7b bd 47 56 55 3d 50 7d 1e bd cc fc 98 bd
       -0.06151742 0.052084234 -0.038693726 -0.07470092
000370 ce 21 99 bd bb ae ca 3b cc 42 9b bc 05 52 b6 bc
       -0.07477151 0.0061853803 -0.01895275 -0.022255907
000380 ee 72 80 3d b6 55 20 bd 1b ac d1 bc 8d 58 2f 3c
       0.06271921 -0.03914424 -0.025594762 0.0107022645
000390 7f 7b fd 3c 4d 56 2b bd 0a c1 df 3c af de c7 bd
       0.030942677 -0.04183035 0.027313728 -0.097592704
0003a0 e0 93 47 3d be af 5e bd 0f 95 ce 3d e0 65 8d bc
       0.04872501 -0.05436682 0.100870244 -0.017260492
0003b0 54 8e 20 3b f6 17 93 3d 7a 58 f0 3c f1 10 96 bd
       0.0024498897 0.071823046 0.029339064 -0.0732745
0003c0 c5 c2 92 bd 1e 2e 8a 3c 1e 8e b9 3d 06 c4 a9 3d
       -0.071660556 0.016867694 0.0906031 0.08289342
0003d0 d5 c0 44 3d e1 1b 96 bd 1f be 70 3d 06 93 a7 bd
       0.04803546 -0.07329536 0.058775064 -0.08182339
0003e0 52 3d a4 bd 0d 4a 70 bc 53 ef 01 bd 16 51 28 3b
       -0.080195084 -0.014666093 -0.031722378 0.0025683097
0003f0 71 e1 48 bc 24 d6 88 bb 78 44 f8 3c 09 2e 9d bc
       -0.012260781 -0.004175918 0.030306086 -0.01918699

bias f4 [128]
000000 6b 98 db 3d 0d 7e 9a 3d 6a e9 ad 3d 0d 11 ce 3c
       0.10722431 0.075435735 0.08491786 0.025154615
000010 b0 b8 75 3d 0b 90 78 bd ae 9b 68 bd 8d a9 8a 3d
       0.059990585 -0.060684245 -0.056789093 0.067706205
000020 67 a9 af 3d e1 08 1f 3b 16 ea 77 3d 06 66 ab 3c
       0.08577233 0.0024266767 0.060525976 0.020922672
000030 63 4c 45 3d e5 62 af 3d 1a 72 6f bd c7 9d 0a 3d
       0.04816855 0.085637845 -0.058458425 0.033841874
000040 00 b1 01 bd 6a 1c 82 3d 2c 40 6f bd 70 76 4c 3d
       -0.03166294 0.06353076 -0.05841081 0.04991764
000050 83 ee 70 bd 12 f7 22 bb 20 00 aa bb a8 f5 61 bd
       -0.058821213 -0.0024866504 -0.005188003 -0.055165917
000060 41 a9 64 bd cf af b7 3b 20 39 57 3d 9e 23 67 3c
       -0.055825476 0.005605675 0.052544713 0.014107613
000070 dd 7a b9 3b bf 9f ce bc 28 71 19 3d 7d 39 c8 bb
       0.0056603984 -0.025222657 0.03746143 -0.0061103688
000080 d2 7a 7c 3d bd bc a1 3d 40 66 86 3d 22 0e 50 bd
       0.061640568 0.07897327 0.065624714 -0.050794728
000090 1b fe a2 3d e7 0c 24 bd c5 57 bb bc 83 70 19 3d
       0.07958623 -0.040051367 -0.022869 0.037460815
0000a0 53 ae 4e 3d 70 6f bd 3d 3f 11 c3 3d 1c 39 ca 3d
       0.050459217 0.09249771 0.09524774 0.09874174
0000b0 96 9b 34 bd 9d d6 b5 3d a9 6a 94 bd de 9b ea bc
       -0.04409369 0.08878825 -0.07246906 -0.028638776
0000c0 38 12 b4 bb 0d b3 dc 3c 07 fe 86 bc e6 8b 05 3d
       -0.005495336 0.026940847 -0.016478552 0.03260412
0000d0 24 11 08 bd 8e 22 81 bd a8 20 61 bd 1c e6 8f bd
       -0.03321947 -0.06305419 -0.054962784 -0.07026312
0000e0 99 5b 91 3d dd 60 97 bc f0 a8 6e bd a5 0c 49 bc
       0.07097549 -0.018478805 -0.05826658 -0.012271081
0000f0 90 86 2a bd ca f6 8b 3d e4 8b 7f 3d 40 5f df 3a
       -0.041632235 0.06834181 0.06238927 0.0017041937
000100 7d d3 77 3b 49 01 52 3d 4c a2 69 bd 0c d5 38 bd
       0.0037815266 0.051270757 -0.057039544 -0.045125052
000110 37 0e cd 3c f3 39 be 3d 5c 05 9f 3d 12 4b d7 38
       0.025031192 0.09288397 0.07764694 0.00010265982
000120 0f 31 34 bd 68 2d a4 bb e7 d6 35 3d bc a7 54 bd
       -0.0439921 -0.0050102957 0.0443944 -0.051917776
000130 26 46 5b 3d 81 b3 09 bd 07 e6 83 3c 90 02 96 3d
       0.053533696 -0.033618454 0.016100897 0.073247075
000140 1f 27 22 bd 49 33 18 bc 7f a8 85 3d 8c a6 85 bd
       -0.03958809 -0.009289571 0.06526279 -0.06525907
000150 de fe 97 bc 8f 60 8d 3d 8f ea 86 3d 6b 00 af 3d
       -0.018554147 0.06903183 0.06587707 0.085450016
000160 84 ec 84 3d 0b 53 bd 3c 41 f9 7b 3d 1c 56 4e 3c
       0.06490424 0.023110887 0.061517004 0.012593772
000170 18 8b 43 bd 58 70 9f 3d cb 5e 7a 3a f9 96 c2 3d
       -0.047740072 0.077851 0.00095508684 0.09501452
000180 5e d3 c0 3d 96 c5 be bc 71 3b 0f 3b f1 9b 76 3c
       0.09415315 -0.023287576 0.0021855498 0.015051828
000190 aa 9c d0 3d 43 a8 f1 bb 6e 1a 64 3d 1d ee 2d bd
       0.10186131 -0.0073747947 0.055689268 -0.04246341
0001a0 00 af be 3c ea da 7f 3d 3d c5 55 3c b9 c8 d0 bb
       0.023276806 0.062464632 0.013047514 -0.0063715843
0001b0 90 4d 0f bc 0a 08 8d 3d d6 bd 9a 3d 13 dd 5d bb
       -0.00874652 0.06886299 0.075557396 -0.0033853694
0001c0 56 8d 46 3d 42 66 2f bd b3 98 eb 3c 66 27 82 3d
       0.048474632 -0.04282213 0.028759336 0.06355171
0001d0 ad 51 b5 3d 0d 6e 93 bc 68 ab 85 bc 6c a4 01 3d
       0.08853469 -0.017996812 -0.016317084 0.031650946
0001e0 dd c9 ec bc 1f 7e d2 3d 2f f4 ae 3d 97 5b 34 3d
       -0.02890485 0.10277962 0.08542668 0.04403266
0001f0 ea 94 3e 3d f6 58 50 bd 13 41 84 3d 8f 3f 07 3c
       0.046528734 -0.05086609 0.064577244 0.0082549

weight f4 [128, 129]
000000 2a 88 71 bc 33 74 cb 3c aa 75 da ba 21 de c7 bd
       -0.014741937 0.024835682 -0.0016667147 -0.097591646
000010 a4 e4 25 3d dc b3 4c bb dd 20 7e 3d 12 88 24 3d
       0.04050125 -0.0031235134 0.06204306 0.04016883
000020 71 77 37 bd 43 83 b3 bc 85 f4 52 bd b7 0d 10 bd
       -0.044791643 -0.021913176 -0.051502723 -0.03516933
000030 85 dc d2 bc 26 99 57 3d 68 fd d5 bb b3 da ed bc
       -0.025739918 0.052636288 -0.0065304525 -0.029034948
000040 fa 95 4e 3d b8 b7 8f 3d 28 f9 1d bc a3 42 34 3d
       0.050435998 0.070174634 -0.009641923 0.044008862
000050 4f fc 2d bd 4d 8c a5 3d fb 38 56 bc a7 f4 b9 3a
       -0.04247695 0.08083401 -0.013075109 0.0014187292
000060 fa b9 b9 bd 37 10 29 3d 30 23 18 bd 7a f4 17 bd
       -0.09068675 0.04127523 -0.037142932 -0.037098385
000070 67 d4 53 3d 69 17 c8 3b bc 82 cc bd 88 2c a0 3d
       0.051716235 0.0061063063 -0.09985873 0.07820994
000080 50 15 04 bc 95 5e b1 3d e2 bd 3a bd 13 96 ca bd
       -0.008061722 0.08660618 -0.045591243 -0.09891906
000090 88 d2 70 3d 12 e7 99 bd 9c 6c ad 3c a1 11 00 bd
       0.05879453 -0.07514776 0.021169953 -0.031266812
0000a0 51 05 c4 3d 45 e3 9c 3d bd a8 78 3c db 2e ba 3d
       0.095713265 0.07660536 0.015176949 0.09090968
0000b0 78 79 13 3d b8 ba 1f 3d e2 e3 58 3d c1 d0 65 3d
       0.036004514 0.03899643 0.0529517 0.056107286
0000c0 10 28 0b 3d 0c 8d 56 bd c1 8e b3 bd 4f a9 6c 3d
       0.033973753 -0.052380607 -0.087674625 0.057778653
0000d0 f0 57 bb 3d ac b5 ea bc 2d ab 69 bd 84 cc 07 bb
       0.09147632 -0.028651081 -0.05704801 -0.0020721266
0000e0 af 7b 47 bc e8 2a 03 bd b1 a2 90 3b cf 74 8a bd
       -0.012175485 -0.03202334 0.0044139256 -0.06760561
0000f0 a7 43 22 bd 7b cc bf bd cd c1 d1 3c 7f 6c 12 3d
       -0.0396153 -0.093651734 0.025605107 0.035748
000100 dd c8 86 bd 70 c1 39 3d 0f a6 11 3d 91 88 22 bd
       -0.065812804 0.045350492 0.035558756 -0.03968102
000110 56 9f 88 3d 02 c1 dd bd 28 bf d8 3b c8 52 5d bd
       0.06671016 -0.10827829 0.0066145845 -0.054034024
000120 14 b9 d7 3c d3 ce 8a bd bb d2 40 bd a4 c3 b7 bc
       0.02633337 -0.0677773 -0.04707597 -0.022432156
000130 7b ed 52 bd 5f 02 3b bd 24 09 ec bc 25 48 77 bc
       -0.05149601 -0.045656558 -0.028812952 -0.015092884
000140 c9 ac f7 3c 3d 38 90 3c 37 b1 82 bc 2b de 50 3d
       0.030233758 0.017604942 -0.015953643 0.050993126
000150 71 c2 fd bc 4b ef 16 3d 9e 6c 58 bd ff 78 ab 3d
       -0.030976506 0.0368493 -0.05283796 0.083726875
000160 85 fe a5 3c d6 9a c0 3d e9 09 b9 3b 74 8e 01 3d
       0.020262966 0.094045326 0.0056469333 0.031629995
000170 fd 8a 4b bd 8a 0f f3 bc 88 ec d6 3c 75 d0 d1 bc
       -0.049693096 -0.029670496 0.026235834 -0.025612095
000180 72 37 e3 bc 64 e4 a5 bd 01 a1 82 3d 59 7b 31 bb
       -0.0277364 -0.08100203 0.06378365 -0.0027081578
000190 c6 f1 6e bd 17 10 cd 3c 5e e1 8a bd 7a 5c ac 3c
       -0.058336042 0.025032086 -0.06781267 0.02104019
0001a0 6b 1d b5 3d 7f ff b0 3d 9c 8c 31 3d 9c b9 a2 bc
       0.08843502 0.08642482 0.043346986 -0.019863896
0001b0 af 9e ad 3c d3 13 05 3d 85 ba 89 3a 74 d3 8c bd
       0.02119383 0.03248961 0.0010507858 -0.06876269
0001c0 98 d9 e6 3c 4b 51 04 3d 6a bd 54 3d 20 45 85 3d
       0.028179929 0.03230409 0.05193845 0.06507325
0001d0 64 b7 5b bd 8f 52 ad 3d 5e c0 a5 3c 96 69 de bd
       -0.05364169 0.084630124 0.02023333 -0.10859983
0001e0 0f 5f 91 bd 15 e3 83 3d 11 14 34 3d a6 38 79 3d
       -0.07098209 0.06439797 0.04396445 0.06084504
0001f0 94 c0 eb 3c 79 6b a0 bd e9 e0 e5 bc be 86 df bd
       0.028778352 -0.07832999 -0.028061347 -0.10914372
000200 36 04 05 3c 2c 36 18 bd 23 16 b5 bc cd b0 88 3d
       0.00811868 -0.037161037 -0.022105282 0.06674347
000210 d6 46 4c bc bf 7f 7c 3d d4 e4 5b 3d ea e6 c2 bc
       -0.0124680605 0.061645266 0.053685024 -0.023791749
000220 c8 2b af 3d 8c bc 85 3d 16 c1 1e 3d 3e 5e 2c bd
       0.085532725 0.06530103 0.03875836 -0.042082064
000230 e3 58 d8 3b e8 3f 2c 3d 72 65 99 3d 93 89 02 bd
       0.006602393 0.042053133 0.07490052 -0.031869482
000240 3a b6 23 3c 78 f3 66 3d 7e 56 84 bd b9 27 a3 bd
       0.009992177 0.056384534 -0.064618096 -0.07966561
000250 af d0 5e 3c 47 91 97 3d 4b 4d d0 3d 41 cb 81 bd
       0.013599559 0.07400756 0.101709925 -0.06337596
000260 65 4f 8f bb e2 d8 12 bc d9 f2 b1 bb 28 55 1e 3a
       -0.0043734782 -0.008962842 -0.005430561 0.0006039911
000270 a2 93 96 3d 29 ec 8f 3d a3 4e ed 3c 41 4a 1f 3d
       0.073523775 0.07027466 0.028968161 0.038889173
000280 be 93 9b 3d d7 20 93 3d 12 2a 1c 3d a2 78 fc 3c
       0.07596539 0.07183998 0.03812606 0.030819241
000290 d8 23 82 3d 76 2b 68 3d c3 a8 8b bc 9d dd b6 bd
       0.06354493 0.056682073 -0.017048245 -0.08928988
0002a0 18 a9 84 bd 6c 45 48 bd 45 2f e1 3c 63 f4 8c 3c
       -0.064775646 -0.04889433 0.02748836 0.017206376
0002b0 9c 4e 30 bd 9d 67 33 bc 6a 92 9d bc da ee 19 3d
       -0.043043718 -0.010949996 -0.019234855 0.037581302
0002c0 b0 80 63 bd fc 4d 4c 3d ef 86 80 3d f7 48 2a 3d
       -0.055542648 0.04987906 0.062757365 0.04157349
0002d0 57 3d 81 3d 00 da a6 3c 06 56 87 bd 69 cb e8 3c
       0.06310528 0.020367622 -0.066082045 0.028417306
0002e0 b8 8e 35 3d 02 e5 fe bb 76 1b df 3c ae 36 08 bd
       0.04432556 -0.0077787647 0.027234774 -0.03325527
0002f0 7f 07 30 bd c0 79 08 3d 78 55 e9 bc 77 0d 5d 3d
       -0.0429759 0.033319235 -0.028483137 0.05396792
000300 2c 09 14 bd 69 90 d3 bc 3a 00 98 bd 0c 76 e4 3c
       -0.03614156 -0.025825696 -0.07421918 0.02788832
000310 6a 00 3c bd cf bc 39 bd 17 11 5a 3d 03 49 76 bc
       -0.045898832 -0.045346078 0.053238954 -0.015032056
000320 b1 54 57 3d 6e 04 91 bd 02 0e 8a 3c a1 b9 6e bc
       0.052571002 -0.07080923 0.016852383 -0.014570625
000330 5b f9 9a 3d 95 ee 79 bd 30 74 5b bc b4 45 83 bd
       0.07567092 -0.061018545 -0.0133944005 -0.06409779
000340 47 3b a2 bc 1e f4 8c bd 45 2d 0e 3d 92 98 b9 bc
       -0.019803656 -0.06882499 0.03471114 -0.022655759
000350 5c ff 80 3d 9c a4 fc 3c f1 f4 6e bd 81 59 ae bd
       0.06298706 0.03084021 -0.058339063 -0.08513165
000360 d0 69 dc bc a4 ec 95 3b 5a e2 5b bd 32 7f 53 3d
       -0.026905924 0.004575329 -0.053682663 0.051634975
000370 86 70 60 3b db 43 b8 bd 1a 6d 37 3d 04 f9 55 3d
       0.0034246757 -0.089973174 0.04478178 0.052239433
000380 74 53 ee 3c f2 45 7f bd 5b ed 2b bd e2 89 93 3d
       0.029092528 -0.062322564 -0.041974407 0.072040334
000390 54 30 36 3d 51 0c 9e bd 28 d9 0a 3d 49 07 ad bd
       0.044479683 -0.07717193 0.033898503 -0.08448655
0003a0 5b fb af 3c 44 d2 06 bc 34 82 a6 3d 26 82 64 bd
       0.02148216 -0.008228842 0.08130303 -0.05578818
0003b0 5c bf 7b 3d 98 73 68 bd 73 9e 43 bd 03 f9 b1 3b
       0.06146179 -0.056750864 -0.04775853 0.005431296
0003c0 32 d5 ba bd 38 80 49 bd 2b 86 3d 3d 9f 63 82 bd
       -0.09122695 -0.049194545 0.04627053 -0.063666575
0003d0 aa 0a a4 3d df 4d bb 3d bc 91 4a bd db b9 97 bc
       0.080098465 0.09145712 -0.04945539 -0.01852124
0003e0 2a 24 61 3b 22 f7 94 bd de b5 06 3d 0b 92 20 bd
       0.003435383 -0.07273699 0.032888286 -0.039201777
0003f0 20 2f 55 3d 7c 46 b5 bd b3 c5 b1 3c d0 91 9d 3d
       0.052046895 -0.088513345 0.021700716 0.07693827

bias f4 [128]
000000 4b 35 13 bc 9d 5b 97 3d 44 7a 9a 3d f6 c9 07 bd
       -0.008984874 0.07390521 0.075428516 -0.03315159
000010 ca dc 90 3d 8f 3b 62 3c a5 24 85 3d ba 23 92 3d
       0.07073362 0.013808145 0.0650113 0.071357206
000020 df 46 17 bc 53 8b 5d 3d 2b 91 15 bc 0f 89 b1 3d
       -0.009233206 0.054087948 -0.009128849 0.0866872
000030 21 fb f0 bc 92 b5 22 3d 44 af 74 3d 61 c9 08 3d
       -0.029416623 0.03972394 0.05973746 0.033395175
000040 4d ce 1d 3d 5e 21 b6 bc 6b 69 a5 bc c3 32 2d 3c
       0.038526822 -0.022232708 -0.020191869 0.010571185
000050 9e e2 84 3d 9e 99 11 bc da 20 21 bd 47 0e 30 3d
       0.06488536 -0.008886723 -0.03933797 0.042982366
000060 a7 0c 4b bd e4 d1 cc 3d e1 41 87 3c f1 8e c7 3d
       -0.049572613 0.10000971 0.016510906 0.09744061
000070 71 ba 0a 3b 81 48 ed 3c b8 7f a8 3d cc 4f 25 bd
       0.0021168257 0.028965237 0.082274854 -0.040359303
000080 a7 d8 0e 39 44 65 fc 3c 64 5a 3a bd 8c 26 ea bc
       0.00013622885 0.030810006 -0.04549636 -0.028582834
000090 ec eb 87 3d 6d d4 fb bc 72 ce b0 3d d0 e1 9a 3d
       0.066367954 -0.030740941 0.08633126 0.075626016
0000a0 37 29 76 3d fa ba 89 3d e6 f6 e5 3d 6a d7 d0 bc
       0.0600979 0.06725116 0.11228733 -0.025493342
0000b0 41 98 a4 3d 01 51 92 bd 52 41 2e bc 89 cf c5 bc
       0.08036853 -0.071443565 -0.010635691 -0.024146812
0000c0 58 c7 45 3d 10 42 52 bd 55 f1 44 bd 35 2d 4a bc
       0.048285812 -0.051332533 -0.048081715 -0.01233988
0000d0 ec 08 7a 3d 24 8a 39 bd 3e a0 fa bb 11 30 99 3d
       0.061043665 -0.045297757 -0.007648497 0.07479871
0000e0 4e e8 84 bd 11 97 a5 bc d6 be 26 3d 35 61 b2 bc
       -0.06489621 -0.020213636 0.04070934 -0.021774868
0000f0 8e 53 3a bd 17 e6 1d bd 47 97 08 3c da 2d 8c 3d
       -0.04548984 -0.03854951 0.008336849 0.06844683
000100 57 c6 55 3d 35 b4 14 3d ed 8f e2 bc 69 c4 21 bd
       0.052191105 0.03630467 -0.02765652 -0.039493952
000110 60 91 9a 3c 2d 89 6f 3d be e8 ca 3d 12 2d 4b 3b
       0.018868148 0.05848043 0.09907673 0.0031002206
000120 c4 d1 85 bc 39 2f 44 3d b1 73 91 3c 0e 9b d4 3d
       -0.016335376 0.047896598 0.017755361 0.10381137
000130 6d d5 bc 3d 5f 01 e3 3d 98 a1 f0 bc b4 44 28 3c
       0.09220395 0.11084246 -0.029373929 0.010270286
000140 69 50 20 bd 1a c9 14 bc 0e f1 9d 3d 43 e4 66 3d
       -0.039139185 -0.0090811495 0.07711993 0.05637003
000150 da b2 a8 bb a2 ba aa 3d 56 f6 ab 3c 69 ee c7 3c
       -0.005148274 0.08336379 0.020991486 0.024405675
000160 a4 74 ec 3d 03 06 0a bd 9c 1b 9c 3d 32 e8 60 3d
       0.11545685 -0.03369714 0.076224536 0.05490894
000170 df 04 a8 3d a9 90 c4 3c f8 8f 2c 3c fc 7e 0a bc
       0.08204054 0.02399476 0.010532372 -0.008453127
000180 cf c4 7a bd a9 d2 3d bd 99 75 19 bd c7 c5 8f 3d
       -0.061222848 -0.04634348 -0.037465665 0.07020145
000190 21 6f e7 bb 28 42 88 3d a5 f4 be 3d 86 ac 83 3d
       -0.007062808 0.06653243 0.09324006 0.064293906
0001a0 33 d0 64 3b f0 3a a9 3c 79 09 34 bd 38 36 68 bd
       0.0034914135 0.020657986 -0.043954346 -0.056692332
0001b0 d3 9f 13 bc 62 f0 34 bd 18 c3 85 bd e9 24 6c bd
       -0.009010273 -0.04417456 -0.06531352 -0.057652388
0001c0 13 41 a8 3d 53 18 16 bd 76 fd ee 3b 27 8e 04 3c
       0.08215537 -0.03664429 0.0072933985 0.008090532
0001d0 0b b2 93 3d 45 a9 47 bd c5 9d 87 3d 06 e8 a0 3d
       0.072116934 -0.048745412 0.06621889 0.07856755
0001e0 55 68 c1 3d b4 67 71 bd 4f 86 8a 3c 6f 05 66 3d
       0.09443728 -0.05893679 0.016909746 0.056157526
0001f0 2e a3 87 bd 8a 2d 57 3d 91 22 3e bc 5c 5c 40 bd
       -0.06622921 0.052533664 -0.011604921 -0.04696308

weight f4 [1, 128]
000000 89 bd 47 3d 2b 8a 95 bd 75 2f a5 3d dd 28 8a bd
       0.04876474 -0.07301744 0.08065692 -0.06746075
000010 f4 c3 50 bd 65 42 6f 3d c3 45 90 bd 9c 01 82 3d
       -0.050968125 0.058412928 -0.07044556 0.06347963
000020 6c 3a a5 3d f0 4e dc 3d 1b 71 4a bd be 5e 8c 3d
       0.08067784 0.10757244 -0.049424272 0.06854008
000030 d7 62 57 3d 76 05 7f 3c 97 65 bc bd dc fe 6b bd
       0.052584495 0.015565267 -0.09199064 -0.0576161
000040 d8 b9 c0 3d 7f 38 91 3d 52 87 70 3d 12 13 b9 3d
       0.09410447 0.07090854 0.0587228 0.090368405
000050 02 69 48 bd 1a e2 99 bd fc e3 bf 3d 95 b8 6f bd
       -0.04892827 -0.075138286 0.093696564 -0.05852564
000060 0c da 98 bd 2e d1 63 3d 3a aa b1 3d 9a 21 b9 3d
       -0.07463464 0.05561941 0.08675046 0.09039612
000070 e6 cf 1c bd b0 71 70 bd e4 87 ed 3d fb 84 b1 bd
       -0.038284205 -0.05870217 0.11598185 -0.08667942
000080 32 03 55 bd b8 4a d7 3d 80 62 69 bd a4 0a ac bd
       -0.052005 0.10512298 -0.056978703 -0.08400467
000090 dc 20 9a bd 34 81 96 bd a8 ba 9f bd 2e 64 73 bd
       -0.07525799 -0.07348862 -0.07799274 -0.05942171
0000a0 8c 37 8e bd 0a 9a 82 bd fb aa 77 bd 25 61 6e 3d
       -0.069441885 -0.06377037 -0.060465794 0.058198113
0000b0 9b ca ac 3d df e6 68 3d 88 6b ce bc 08 8e 8d bd
       0.084370814 0.0568608 -0.02519776 -0.06911856
0000c0 6d cf a2 bd 82 69 8b bd fe 19 ae 3d f5 31 8c 3d
       -0.079497196 -0.068072334 0.08501051 0.06845466
0000d0 6c 97 81 3d fb 84 89 bd 58 42 a3 3d ae 4d 5e 3d
       0.063277096 -0.06714817 0.079716384 0.0542733
0000e0 a7 8b 92 bd 87 c2 65 3d aa 0c 8b bd 71 9e 6e 3d
       -0.07155543 0.05609372 -0.06789525 0.05825657
0000f0 c2 52 c9 bd 0b b2 b0 bd f8 db d6 bd fb 05 a2 bd
       -0.09830238 -0.08627709 -0.104911745 -0.07911297
000100 ee 8e 6e 3d d2 0d b2 3d c1 47 a8 bd f8 f1 b5 bd
       0.058241777 0.08694042 -0.08216811 -0.088840425
000110 68 a2 c1 bd a7 dc 89 3d c7 eb 84 3d 62 8d 69 3d
       -0.09454805 0.06731539 0.064902835 0.0570196
000120 da 98 93 bd 86 03 b4 bd 62 15 4f bd 5f 8c 73 3d
       -0.072068885 -0.087897345 -0.0505575 0.05946004
000130 82 bc a4 3d 28 1c 6c 3d 9f 12 b1 bd 20 c5 85 3d
       0.080437675 0.05764404 -0.0864613 0.06531739
000140 99 0f 9d 3d 22 61 29 bd 9d 8c db 3d 4e 49 87 bd
       0.07668991 -0.0413524 0.10720179 -0.06605779
000150 8b 53 8b 3d 05 c0 88 bd 87 3a 5e bd 4d a1 c7 3d
       0.06803044 -0.0667725 -0.054255035 0.097475626
000160 06 14 8a bd ff b8 4f 3d 07 af 39 bb 68 7e 73 bd
       -0.067421004 0.050713535 -0.0028333084 -0.059446722
000170 77 3e 78 3d d8 bb 27 bd ce b4 70 bd b9 30 73 3d
       0.060606446 -0.040950626 -0.05876618 0.059372637
000180 e7 b9 dc bd 04 93 a5 bd aa 38 86 3d 03 b2 b3 bd
       -0.107776456 -0.08084682 0.065537766 -0.087741874
000190 68 62 b0 bd c3 ed 60 3d 5b 2e 91 bd a8 82 ad 3d
       -0.086125195 0.054914247 -0.0708892 0.08472186
0001a0 93 fc 70 bd fc e0 88 3d d7 6e 78 bd b2 59 67 bd
       -0.058834624 0.06683537 -0.06065258 -0.056482024
0001b0 93 2d 78 3d f6 45 a6 3b db 0d 98 bd ff ec 85 bd
       0.060590338 0.005074258 -0.07424518 -0.06539344
0001c0 a2 51 87 3d a3 a8 94 3d ce 07 c9 3d 92 d2 72 3d
       0.06607367 0.072587274 0.09815942 0.059282847
0001d0 79 3a 89 3d 79 fb b1 bd c0 f5 66 bd 1b 8b 5f bd
       0.06700606 -0.08690543 -0.05638671 -0.05457602
0001e0 3a 46 d9 bd 73 a4 76 bd 1d 18 81 3d 9c 57 a2 bd
       -0.10609098 -0.060215425 0.06303427 -0.079268664
0001f0 58 30 9f bd e4 5c 5a bd 4d de 8f 3d 3a 83 b3 bd
       -0.07772893 -0.053311244 0.070248224 -0.08765264
